results/gru_2023-09-18_20-39/gru.pth (torch, 737571 bytes, 22 tensors)

gru.weight_ih_l0 f4 [192, 366]
00000000: cca7 94bc 9ce9 ec3d a565 ba3d f378 e23b
00000010: 5afb d33d 0fd3 52bd 0c6d aabd 162e 153c
00000020: f43e b5bd dda9 e8bd 4042 c5ba ffdf 273d
00000030: 8d32 6cbd 35dd 913d 9c55 043e f839 5abd
00000040: f0f4 89bd 3774 95bb 3f50 5abd c1cf b83d
00000050: e989 06bd eaf1 573d 2a6f 95bd 38ab 00bd
00000060: 6357 cbbd 3c3b 91bd b70b 6cbd a39d 09bc
00000070: eca5 833d 2809 d33d 7867 08bd c8d7 f0ba
00000080: b3f4 0d3d d26f f9bc da1b e2bd f145 dcbc
00000090: 6ddf 33bc 2c10 e93d 8ae2 253e faf1 b5bc
000000a0: bc4f fbbc 9095 6a3c 4180 11bd 47aa 9c3d
000000b0: c228 ddbd b0ce c53d a038 9abd 3e1f a13d
000000c0: 5e46 f13d ccaa 8c3d c9c4 b53d 39a9 103e
000000d0: d6f6 ec3d e51c 7d3c e52e bebb fcd2 22bc
000000e0: 53c3 b1bd 181a 52be c9c4 d7bd 6d61 b53b
000000f0: db6a 05be 4cdb c2bd ee7a 86be 776a 24bd
00000100: 72c0 adbd 44b5 37bd 95d4 c43d 13b8 be3d
00000110: fd71 28bd b447 dc3d 9a06 a23b d319 b93d
00000120: a57a 003e ec1c 51bc db61 9ebd 3d1d a4bd
00000130: e8fc d53d 48a3 223c 6c64 2ebd d0b5 093e
00000140: d55e 573e ab8e 393e 3a64 1d3e f37c 1e3d
00000150: a5e9 5d3b 2fd0 cb3c 1cc6 aabd 4ff9 f23d
00000160: 38a1 eebc 1cb1 563d 81fe 90bd d3c0 f6bc
00000170: ea22 bdbd beee 463d 1c76 30bb ecb8 9bbd
00000180: 863d 723d 2db2 4c3c c608 d43d 58c9 9b3c
00000190: 0aeb bfbd 6731 213e 5fd3 933d 04b0 a4bc
000001a0: 5d81 543e 4486 25bd 740f 083e 524b 9fbc
000001b0: 1ace c13d cbef 11be 4d32 083d fff8 bebd
000001c0: a17c 743d 674b 83bd 2d75 f8bc 2ec8 8a3d
000001d0: 2015 c73c a545 343e e0f9 483c 100f 453c
000001e0: 2a57 f7bd 2b1d fcbd 7f1c 08bd 5b0d e83d
000001f0: a83e eb3d 368f 233e e336 193e 31f0 bd3c
00000200: 2071 a43d b6ba 483d bcc4 3b3e f402 fe3d
00000210: b806 ab3d 8ad1 363e d63b bc3d 9263 ac3d
00000220: 12aa 873c f1f0 f23d 8c53 96bd ccdb ba3d
00000230: 87f6 59ba 0bc6 873e cbf0 b43c 7974 41bc
00000240: e4b9 88bd a6ae 4abd fcda 913d 2442 b8bd
00000250: 28bf 1d3c d444 d33c 24e8 fbbd 4234 923d
00000260: 6228 1cbd 23e3 0dbe e15a 973c 5b36 8cbd
00000270: e10f b83d 53d4 5b3b 0490 ebbd a67a d2bd
00000280: 03e8 d13d 64c9 21bd db5d dfba 1700 393d
00000290: a1b5 4cbe a73f 29be de3a 9ebe 62c3 18be
000002a0: 83ba a8be b55e 1bbe 1571 c0be 666a dcbe
000002b0: 9aad 4abe b8d3 a7be b166 38be 41d0 67be
000002c0: 88b6 63be 4e0a a0be d5c2 21be 3bdc e0bd
000002d0: a5c8 f23c d72a d8bb 5949 c0bd 02da 763d
000002e0: c597 273e 8d38 203e 363a 013e e1cd a7bc
000002f0: 07a8 eb3d f5c7 0e3c de4b ee3c 85b0 d63d
00000300: af73 483d ec0a 123e 5179 293e 5d33 e23d
00000310: e3b6 203d 6734 293d ba4c 733d 4b51 f9bc
00000320: c3f4 05bd f11a 1e3e 73cc 1b3e 178a debb
00000330: ad64 fbbd e02a 94ba a8aa 1cbe 9741 29be
00000340: 7587 2a3d 1527 6cbd 0c37 44be 783a a2be
00000350: 5665 93bd facd a4bd 95f5 95bd 989d 913d
00000360: 868b e4bd 4f8d 8f3b a006 e1bd 9eaa 1dbe
00000370: 7c34 26be 23b5 a1bd 6891 10bd a423 143d
00000380: f441 fabb 672c 29be 7bf9 18bd d71a 12be
00000390: 5788 f9bd bc36 2fbe f52d 2abd 37b9 32bd
000003a0: 187a fdbd 51bd c2bd 71fd 84bc c6c7 74be
000003b0: fe92 6bbe 633f 18be bb5a 16be 2901 50be
000003c0: 1438 91be 5695 6ebe 9d26 2abe 751b bfbd
000003d0: 5cd0 0ebe 1caa 5abe 27e2 dfbb 95b5 48be
000003e0: 0215 09be a251 56bd 318d 103d 2fe2 25bd
000003f0: 1ab8 e2bc 9713 33be abda 41bd 1a2e 10be
-0.018146418 0.11567995 0.091014184 0.006911391 0.10350676 -0.051470812 -0.0832158 0.009105226
-0.08849898 -0.11360524 -0.0015049651 0.040985104 -0.057665396 0.0712227 0.12923282 -0.05327794
-0.06736171 -0.004560973 -0.053299185 0.09024001 -0.032846365 0.05272094 -0.072965935 -0.031413287
-0.09928777 -0.07091376 -0.05762836 -0.0083994 0.064281315 0.10304481 -0.0333018 -0.0018374855
0.03465719 -0.030448828 -0.110404685 -0.02688882 -0.010978562 0.11380038 0.16199699 -0.02221011
-0.030677669 0.014317885 -0.035522703 0.07649665 -0.107987896 0.09658563 -0.075303316 0.07867287
0.117809996 0.068685144 0.088754244 0.14127053 0.11570518 0.0154487835 -0.00580393 -0.009937998
-0.08679833 -0.20517766 -0.10535581 0.0055352957 -0.13029043 -0.09514484 -0.26265663 -0.040140595
-0.08483972 -0.044850603 0.09610859 0.09312453 -0.041124333 0.10755864 0.0049446346 0.09038129
0.12546785 -0.012763243 -0.07733508 -0.08013389 0.10448629 0.009926625 -0.04257624 0.13448262
0.2103227 0.1812083 0.15370265 0.03869338 0.0033861187 0.024879543 -0.083385676 0.11863958
-0.02912961 0.052415 -0.07079793 -0.030121243 -0.09235175 0.048567526 -0.0026925867 -0.076036304
0.059140705 0.012493652 0.10353236 0.019016907 -0.09371002 0.15741502 0.0721805 -0.020103462
0.20752473 -0.04041125 0.13287145 -0.019445095 0.09463139 -0.1425163 0.033251096 -0.09324836
0.059689168 -0.06410866 -0.030329311 0.067764625 0.024302065 0.17604692 0.012266606 0.012027517
-0.12077172 -0.12310251 -0.0332303 0.11330672 0.1148656 0.159726 0.14962344 0.023185821
0.080293894 0.049006186 0.18336767 0.12402907 0.08350891 0.1785337 0.091911 0.08417429
0.016560588 0.11862362 -0.07340154 0.09123954 -0.00083146285 0.26518282 0.022087475 -0.011807554
-0.06676081 -0.049482964 0.07121846 -0.0899699 0.009628095 0.025789656 -0.12300137 0.07138874
-0.03812445 -0.13856177 0.018475952 -0.06846305 0.08987404 0.0033543303 -0.11502078 -0.102772996
0.10249331 -0.0394987 -0.0017041521 0.0451661 -0.19991161 -0.16528188 -0.30904287 -0.14918283
-0.32954797 -0.15172847 -0.37586275 -0.43049926 -0.19792786 -0.32778716 -0.18007924 -0.22638036
-0.22237599 -0.31257862 -0.15796979 -0.10979506 0.02963669 -0.006596904 -0.0938899 0.060266502
0.16366489 0.15646572 0.12619862 -0.020483913 0.11506658 0.008714666 0.02908891 0.10482887
0.04893845 0.14261979 0.16550185 0.11044953 0.039236914 0.04130974 0.059399344 -0.030434271
-0.032704126 0.15439965 0.1521471 -0.006791364 -0.12275062 -0.0011304282 -0.15299475 -0.16528927
0.04163309 -0.05765446 -0.19161624 -0.31685233 -0.07197063 -0.080470994 -0.07322232 0.07110137
-0.111594245 0.004380859 -0.10987592 -0.15397117 -0.16230959 -0.07895877 -0.03529492 0.036166802
-0.0076372568 -0.16520844 -0.037347298 -0.14268051 -0.12184208 -0.17110723 -0.041547734 -0.043633666
-0.12376803 -0.095087655 -0.016234132 -0.23904333 -0.23005292 -0.1486793 -0.14683048 -0.20312943
-0.28363097 -0.23299155 -0.16616292 -0.09331409 -0.1394667 -0.21353954 -0.0068323794 -0.19600518
-0.1338692 -0.052323945 0.0352909 -0.04049891 -0.027675677 -0.17487942 -0.04732768 -0.14080086

gru.weight_hh_l0 f4 [192, 64]
00000000: 7df8 63be 2417 1f3e 7586 31bc 9d3a 1b3d
00000010: 9f90 733c e778 d73d 0f00 0abd 7df1 26bd
00000020: b789 5abd 900d 4dbe 00ee 58be 65cd 693d
00000030: 5916 a0bd c659 09be 3d30 37be fb0d 67be
00000040: e9a3 6dbd 35cf 083d 420c c93d dff4 263c
00000050: 57d6 8cbd ab0f 8b3d 52e3 7bbd 5559 9f3b
00000060: e36a 88be e710 80be 2b57 1c3d 108d 9d3d
00000070: a6e1 743e bc49 e1bd f989 dc3d 8610 d3bd
00000080: 496d 613e 1262 b8bd a214 693d e0bb 923d
00000090: 76b0 8fbd 674d 72bd c35b 00be 1a89 1bbe
000000a0: ca35 eebd fbb5 62bd 59a7 10bd 6d78 a1bd
000000b0: 9343 2cbd 9700 cdbd 6867 a6be da66 393e
000000c0: d0aa 3a3e 87ce 20bd 7f95 f13c 9dd3 de3c
000000d0: 6435 c73d 4e06 b63b 2e4c 67bc 6d48 76be
000000e0: 4f82 bebc 1f40 d03d 5b30 20be cb30 2cbe
000000f0: 97f8 3c3e 6c06 f23d 984b 0dbe e2bb 933c
00000100: 44de 94be 8be1 17be 6a7b 5fbe 4f3f 1cbe
00000110: acd7 34bd c517 32bd 54b5 23be 637a 5fbb
00000120: 8e1a b6be 8f67 253e ad12 083e 88f7 383e
00000130: a123 8c3d 20d0 9abd 1470 223e 02cd e23d
00000140: 37b1 2bbc 858c dcbe 634e f53e 1a35 363e
00000150: ee57 943b ad7f 30bd 54fe e5bd 8831 a3bc
00000160: 34be 35be 7487 6c3c 627a c3bc 00be a63c
00000170: 4daa e93c 995d 053e 82dc 153c 1d8e 813e
00000180: 778e 553e ab8b 993e d7ac 903e 553e 863d
00000190: 15c5 603e 2776 ba3d 9d8c 6b3e aa05 06be
000001a0: 9500 25be 6675 56be a4ec 29bc 8271 9c3c
000001b0: b0a6 8ebd 7dd8 903e e444 083f 76e8 173f
000001c0: b7d7 70be 585b 1e3e 23c7 91bd af61 dbbd
000001d0: b3a1 303e 2b8b 363d ea2c b33d c14c b9be
000001e0: b0d0 8fbd 2a3d 833e 4ef4 773e f3e0 9bbd
000001f0: 9867 c63d 53ed 883d 48ed 4abd 6657 ff3c
00000200: 2807 e13c 9f40 003e 5a61 38be 7f8e 383c
00000210: 12e1 443d 4aef 27bd a733 5b3a 7f43 d4bd
00000220: bf78 953e acd1 a33e 5cb0 d5bd 8ee3 04be
00000230: 6e9d 60be 9845 353d cde8 2ebe f3d1 22bd
00000240: b575 8abc 84cd 8a3d 4847 d7bc c799 1ebe
00000250: 7f67 2abe c1df 37be a086 43be 4675 44be
00000260: 0da0 3c3d 754a 943d 7e23 b63c 4ca3 46be
00000270: b1fb 9d3d 063b 213e 6581 60be eedd d0bd
00000280: 3797 303e 369d 61be fcdc 45bc b337 3dbe
00000290: 43b3 963d da14 9b3d 16ca b33c ef40 f9bd
000002a0: 1512 3dbc c1f3 8ebe 605e 97bd 9823 6b3d
000002b0: a0d4 27be a6ca 203e 1b40 b5bd 6d14 e43d
000002c0: ec9e 25bc 97c3 103d f215 c2bc 9e33 4a3d
000002d0: 919d c0bd 27a3 6e3d 1488 283d 1089 323e
000002e0: c595 d7bd a781 0dbe 754c 28bd cb2a 40be
000002f0: 3a19 c6be b235 5e3d cbb1 14be f63d 55bd
00000300: dde4 203a f983 b3be 6378 e6bb c004 ca3d
00000310: e68b 6b3e 9a81 703d 03dc 453e 6c1b d1bd
00000320: 9782 3d3d e6b4 523d 2baf 3a3e 1cca 833d
00000330: dbe8 473e 7213 953d 5454 8bbd 9315 32be
00000340: 5c25 483e 9ef4 fe3d e9a6 c43d 15ef 4dbe
00000350: b788 5f3d af78 4b3e bd2c 84be fe90 383e
00000360: 44a7 363e f44b bc3d c0a6 27be 7889 9d3e
00000370: 2b78 25be fceb c23c 2705 febd c5cf 0cbe
00000380: 7878 53be b374 273c 3af5 053e 83fa e7bd
00000390: 4ea2 6fbd e70c 84bc f9e4 d2bc d5c2 463b
000003a0: f976 20be ab36 d6bb 5ec6 7d3c 8f36 e33d
000003b0: 7467 cdbd 2688 27ba 5395 e33d e7e1 bebe
000003c0: aab7 123e 6fc9 2a3c 1e6c 263d 30a4 ddbd
000003d0: 3815 b13e e4fe 813d 8488 a9bd 2788 7ebe
000003e0: 5608 e3bc 010b d1bd f35a 54be c650 bebd
000003f0: 838f 62be 379f 2a3e b048 e53b eee5 473e
-0.2226276 0.15536171 -0.01083528 0.037897695 0.014866023 0.10521107 -0.033691462 -0.040757645
-0.05335399 -0.20024705 -0.2118454 0.057080645 -0.078167625 -0.13413152 -0.17889495 -0.22563927
-0.058017645 0.033400733 0.09816791 0.010190218 -0.068768196 0.06790098 -0.061496086 0.004862944
-0.26644048 -0.25012895 0.038169067 0.07692921 0.23914203 -0.11000392 0.10768504 -0.10305886
0.22014345 -0.090030804 0.056904443 0.071647406 -0.07016079 -0.059155848 -0.12535004 -0.15189019
-0.11631353 -0.05534933 -0.035315845 -0.078842975 -0.04205663 -0.10009878 -0.32500768 0.18105641
0.18229222 -0.03925946 0.02949023 0.027200514 0.0972698 0.005554951 -0.014117284 -0.24051066
-0.023255495 0.1016848 -0.15643446 -0.16815488 0.18454204 0.11817631 -0.13798368 0.018033925
-0.29075825 -0.14832132 -0.21824422 -0.15258525 -0.044150993 -0.0434797 -0.1598714 -0.0034100048
-0.35567135 0.16152786 0.13288374 0.18063176 0.06842733 -0.07559228 0.15863067 0.110742584
-0.010479263 -0.43075958 0.47911367 0.17793694 0.0045270836 -0.04309051 -0.1123015 -0.01992108
-0.17748338 0.014436591 -0.023862068 0.020354271 0.028523589 0.13023986 0.009146811 0.25303736
0.20855127 0.2998937 0.28256866 0.06554858 0.21950181 0.09104567 0.23002858 -0.13088098
-0.16113503 -0.20943221 -0.010371361 0.019097093 -0.06965387 0.28290167 0.5323012 0.5933908
-0.23519789 0.15464532 -0.071180604 -0.10711991 0.17249183 0.044566315 0.08748801 -0.3619137
-0.07022226 0.25632602 0.24214289 -0.07611265 0.09687728 0.06685891 -0.049542695 0.031169605
0.027469233 0.12524651 -0.18005887 0.0112644425 0.048066206 -0.04099969 0.0008361884 -0.10364436
0.29193684 0.31995904 -0.104340285 -0.1297743 -0.21935055 0.044255823 -0.17080994 -0.039751004
-0.01690183 0.0677748 -0.026279107 -0.15488349 -0.16641043 -0.17956449 -0.19094324 -0.19185361
0.046051074 0.07240764 0.02223372 -0.1939823 0.07714022 0.15745172 -0.2192436 -0.1019858
0.17245184 -0.22032627 -0.012076613 -0.18478279 0.0735841 0.075723365 0.021946948 -0.12170588
-0.011539956 -0.27920344 -0.073910475 0.05740699 -0.16389704 0.15702304 -0.08850118 0.111367084
-0.010108691 0.03534278 -0.023692105 0.049365632 -0.094050534 0.058261063 0.0411454 0.17435098
-0.10526613 -0.1381899 -0.04108854 -0.18766324 -0.3869112 0.054250427 -0.14520948 -0.052061044
0.0006137619 -0.35061625 -0.007033394 0.09864187 0.23002586 0.058717348 0.19322209 -0.102103084
0.04626712 0.05144205 0.18230884 0.06435034 0.19522421 0.072790995 -0.06803194 -0.17391042
0.19545501 0.12449001 0.09602148 -0.20110734 0.05457374 0.19870256 -0.25815383 0.1802406
0.17837244 0.091941744 -0.16372204 0.30768943 -0.16159122 0.023794167 -0.124033265 -0.13751133
-0.20651424 0.010220694 0.13081828 -0.11327078 -0.058504395 -0.016119434 -0.025743948 0.0030328531
-0.15670384 -0.0065372786 0.015489189 0.110943906 -0.10029498 -0.0006390832 0.11112466 -0.37281725
0.14327875 0.010424002 0.040630452 -0.10822332 0.345865 0.06347445 -0.082779914 -0.24856625
-0.027713936 -0.10207177 -0.2073782 -0.0929275 -0.22125058 0.16662298 0.0069971904 0.19521305

gru.bias_ih_l0 f4 [192]
00000000: e427 e23d 40f4 e83d 231a be3d 0ef2 0c3e
00000010: da3c 813e 812e 863e 2fb2 d53d f8c5 0b3e
00000020: 5922 763e d6d7 7d3b 7ddf 233d 4bc3 1e3e
00000030: a2f0 b33e 5d09 1c3e bd8e 733b cc03 94bc
00000040: b2c3 25bd 2e62 ed3c 27f0 183c 8b08 27bd
00000050: 3282 013e 2111 6d3e 9ea6 5c3e 7e41 f33c
00000060: a16f b0bd 2b6e fbbc 5a35 d3bc 9e81 8e3d
00000070: dcfd 3bbd 45d2 003d 2b86 9c3d ad2a d6bc
00000080: 79d9 3c3c fb3e 2d3e b357 e1bd 4958 a13d
00000090: 15da 6a3d 7b95 a33e 00bc 193d 41ef 813d
000000a0: 7fa7 8b3d a0f8 2fbd 1d21 c73d 54a8 123e
000000b0: a7c3 c23d cd44 c13d a4ca 243e 48ae cc3d
000000c0: 1536 b63d e13d 1e3e f2a6 0f3e 7eb8 2e3c
000000d0: 2411 7d3b 96f1 443e 0001 b63d 749c fa3d
000000e0: a6d6 463e 40ec ccbd b947 e93c 0c25 7e3d
000000f0: 5740 8bbd 8304 523e 4b28 2c3e 0813 d13d
00000100: 7f09 143e 6dbf 563c a035 aa3d ebc7 57bd
00000110: b7a3 a2bc 4b03 00be 439d 0d3e 8374 18be
00000120: 99eb 28be ad90 c73c ad1d 4dbc e92e 8abe
00000130: c626 2d3b 5c53 453d 9e92 f23d f16b fcba
00000140: 2bcc 2bbe 3b0e 703b d737 213d c61c e6bd
00000150: 5aae 95bd 8a8a 23be 697d e1bc c6a8 1cbe
00000160: 71ca 9d3c ece3 81be 1ad6 0cbe d174 cfbd
00000170: 9ddd c23d d396 b73d bfe3 e8bc e0bb 413d
00000180: dae5 e5bd 55e6 05be 82a8 d1bd a2f9 36be
00000190: 7995 0e3d a70c bebd 19c9 a23c 10a1 4a3d
000001a0: 3955 263d 04ab 733d ce9b 523b 126a 42be
000001b0: 2b21 423d 7b4f 4bbd f13c 963b 977e 173d
000001c0: a5ef 19be 8710 9abe 36e3 72be 84c7 a43d
000001d0: ca51 0bbd 91a8 19bd 98d3 37bc d2bc 6dbc
000001e0: 0384 b5bc 3255 6a3d b026 52be d42b c43c
000001f0: 4ace 52bd 7245 e3bd 7cb2 58bd 389c 13bb
00000200: 3229 3f3c 58e5 293e de85 b8bb e2c8 313e
00000210: 9202 1e3e 856b f23c 45e5 023e 147b 62bd
00000220: 6508 98bb b226 0abd 56e4 0f3c b986 1dbe
00000230: 8bc6 2eb9 e0ea 323d 1db2 69bd 2495 d1bc
00000240: 2885 1cbd 406f a93b 672c 70bc 2410 403d
00000250: d47f 84bd 1aea 243d eff1 84bd a302 d7bd
00000260: f002 48bc 5f35 133d 9321 e1bc 5ba0 87bd
00000270: 5a7b da3c 8ebd d73d 84c9 c63c 2343 923d
00000280: 3cf3 debd a799 acbd 9bca bfbd f0e1 f7bd
00000290: 19a2 ec3d ae20 a53d 6a0c ab3a 5110 cebd
000002a0: 0f1e 26be 6040 bd3d f30c 563c 8a93 ac3d
000002b0: 7a0e f63d f87b e33d ab6a b93d 431d a7ba
000002c0: ffcb 643d 35f3 79be 2cee 00be 011a 11bd
000002d0: 449e 3d3d 696d 62bd 04c8 083e 207d 01be
000002e0: 0021 c6bd 5318 1c3d 0037 b6bd 2de8 3abe
000002f0: 6b34 60bd 62b9 9c3d 85eb bcbd f93c bebd
0.11042765 0.11374712 0.09282329 0.13764212 0.2524174 0.26207355 0.104343764 0.13649738
0.2403654 0.0038733385 0.040008057 0.15504186 0.35144526 0.15237947 0.0037163936 -0.018068217
-0.040469833 0.02897748 0.0093346005 -0.04077963 0.12647322 0.23151065 0.21547934 0.029694315
-0.086150415 -0.03069218 -0.025782276 0.06958316 -0.045896396 0.03145053 0.07642778 -0.026143396
0.011526459 0.16918556 -0.110030554 0.07878167 0.057336885 0.31949982 0.037532806 0.06344462
0.06819057 -0.042961717 0.09723113 0.14322025 0.09509974 0.09436951 0.16092926 0.09994179
0.08897034 0.15453292 0.14028528 0.010664104 0.0038614953 0.19232783 0.088869095 0.12236872
0.1941782 -0.100059986 0.028476583 0.06204705 -0.06799381 0.20509534 0.16812246 0.10208708
0.14456747 0.013107163 0.083110094 -0.05268089 -0.019853456 -0.12501256 0.13829522 -0.14888196
-0.16496123 0.024360979 -0.012519282 -0.26988915 0.0026420816 0.0481752 0.11844371 -0.0019258243
-0.16777103 0.0036629576 0.039359894 -0.11235957 -0.073086455 -0.15970817 -0.02752562 -0.15298757
0.01926157 -0.25369203 -0.13753548 -0.10129703 0.09514926 0.08964314 -0.02842891 0.047298312
-0.11225481 -0.13076146 -0.102372184 -0.17868665 0.034810517 -0.09279757 0.019871281 0.049470007
0.04060862 0.059489265 0.0032136324 -0.18985775 0.047394913 -0.049636345 0.0045849015 0.03698596
-0.15032823 -0.30090734 -0.23719487 0.08045867 -0.034013547 -0.037514273 -0.0112198815 -0.01451035
-0.022157675 0.057210155 -0.2052257 0.02394668 -0.051466264 -0.1109723 -0.05290459 -0.0022523534
0.011667537 0.16591394 -0.0056311926 0.17361787 0.15430668 0.029592285 0.12782772 -0.055293158
-0.0046396726 -0.03372831 0.008782467 -0.15383424 -0.00016667896 0.043681026 -0.057054628 -0.025583811
-0.038212925 0.0051707327 -0.014659024 0.046890393 -0.06469694 0.04026232 -0.06491458 -0.1049855
-0.012207732 0.03593957 -0.02748183 -0.06622382 0.026670147 0.105342016 0.024266012 0.071417116
-0.10886237 -0.08427744 -0.09364816 -0.12103641 0.11554355 0.08062874 0.0013049964 -0.10061706
-0.16222404 0.09240794 0.013064611 0.08426578 0.1201448 0.111076295 0.090535484 -0.001274981
0.05585861 -0.24409182 -0.12590855 -0.03542519 0.046293512 -0.055280123 0.1335755 -0.12645388
-0.09674263 0.038109135 -0.08897209 -0.1825263 -0.05473749 0.076525465 -0.09224609 -0.09288973

gru.bias_hh_l0 f4 [192]
00000000: 93e9 03bc 57ad c8bb 2ab3 d93d 67a3 213e
00000010: fdbc 183e b022 9c3e 960b 543e 6562 f4bb
00000020: 4ba7 9e3e 682b 913d f32a c53d 42d5 943d
00000030: 684f 873e 608a 0b3e 11dc 553e 7c5d 013e
00000040: 9ee0 be3d 119f e1bd 3bd2 56bc b1d2 4e3d
00000050: 67ac 873e 0ae7 a33d 87da 813d 3b0f ed3d
00000060: 5a13 c63d 57c1 09be b5c1 74bd 186c 573d
00000070: d5cd cf3d 4dcc e2bb 72b4 0f3c 46ab 66b9
00000080: 80ef 563e 21f8 d73d a813 3bbd a612 993d
00000090: cff1 8abd 7d11 553e 5fd1 423e 3c89 663d
000000a0: 07fd 033e 88e4 9cbc ffbc c63d b6f5 ec3d
000000b0: 5447 ae3c 50d0 5a3e 08b1 073e cded ae3d
000000c0: 9922 4f3d 0ca8 683e 1787 e8bb fdd6 723d
000000d0: 0282 a2bd 4618 953d ace1 e73d 8990 01bd
000000e0: f173 023e 7302 69be dd27 053e 5bb2 3f3e
000000f0: 9597 d9bc c837 b03d f857 663d 7380 c13d
00000100: 0bdf 233e 0e40 8a3c 6d21 713d 6cf4 59bd
00000110: f3c0 7c3d 1fa3 debc c9d1 643d ef8e e4bd
00000120: 2e15 25be a44e 263e 8bf9 da3d 2a17 6dbe
00000130: 81ea c83d 4fe7 013e 4115 243d 6658 123e
00000140: 09a8 04bd a35a ca3c f8f8 eb3c 176c 43bd
00000150: 2379 57bd 3c67 a4bd 1e84 80bd 3981 40be
00000160: 0ff2 2d3c 0fc5 93bd f1b4 8bbe 947c a0bd
00000170: 7740 6f3b d3da a2bc f216 d03c bce1 19bd
00000180: e15a f2bd d35e 7c3d 5d2c 1abe d1ba 68bd
00000190: 0fb7 e7bd c084 b63c b127 953d 4993 2bbd
000001a0: bee6 c6bd 721b bebc c992 203e 2803 b0bc
000001b0: 4ead b93d 6332 69be 3847 563d 3124 12bd
000001c0: 990f 7d3c 6fb4 58be 8d3a 1dbe a3ea 623d
000001d0: 1eaa 2dbe c654 83bd 5f99 aebc fcb3 2abe
000001e0: 8e46 d8bb 87be d1bd 625c 94be 433f 56bc
000001f0: 9316 1fbc 131e 76be b66e fbbd 0ce7 93bc
00000200: 967e ebbd 027a 27bc 7565 f73c fb8c 903d
00000210: 8b36 4cbd 856d d73d 3637 05bd 7f5c 493c
00000220: 1bf2 163d d7e7 ec3c 9203 d83d dee7 7fbe
00000230: da0c 8c3d b72d adbd ad56 133d 40da a23d
00000240: 7f37 b0bd 643a dabd 5268 cf3d 18fb 29be
00000250: da65 3abe 924e d13d 4d8e 253d e71e 49be
00000260: 4f78 aabd a0bd 013e 5c4b 093d c43e 883d
00000270: 5240 90bd 7643 ed3d 2192 5cbd 7f16 d0bd
00000280: c19e ccbc 068a adbd 39c3 c6bb df15 bdbd
00000290: 2610 423e eab3 df3d e503 cc3d a22c b5bd
000002a0: 865b 573d a430 3abd fa42 733d 7a08 763e
000002b0: 36b3 0abe 1230 da3c 494d 4d3b 3c0f 14bd
000002c0: 7085 113d a550 a3bd 8afa bd3d c696 1bbe
000002d0: cacd 353e 47cc 9ebd e9f1 3dbe 167f 40be
000002e0: aff0 af3d b571 eebd 0c65 3dbe a638 5dbe
000002f0: d62c 00bd fc6e 3b3e f708 9bbd 6235 83bd
-0.008051294 -0.0061241793 0.10629876 0.1578499 0.14915843 0.30495214 0.20707545 -0.0074580186
0.3098701 0.07088357 0.096273325 0.07267238 0.2642777 0.13627005 0.2088473 0.12633318
0.09320186 -0.11016668 -0.013111646 0.0504939 0.2649872 0.080030516 0.06340509 0.115751706
0.0967166 -0.1345266 -0.059755046 0.05259332 0.10146681 -0.006921327 0.008771049 -0.00021998314
0.209898 0.10545374 -0.045673043 0.0747426 -0.067844026 0.20807452 0.19025181 0.05628322
0.12889491 -0.019151941 0.09704017 0.11570303 0.021274246 0.21368527 0.13251126 0.08541451
0.050570104 0.22720355 -0.007096182 0.05928706 -0.07934953 0.072800204 0.1132234 -0.03163198
0.1273954 -0.2275484 0.13003488 0.18720381 -0.026561538 0.086043894 0.056236237 0.09448328
0.16003053 0.016876247 0.058869768 -0.053211614 0.06170745 -0.027177392 0.05586413 -0.11160075
-0.1612136 0.16240937 0.10692128 -0.23153368 0.09810353 0.12685893 0.04005933 0.14291534
-0.032386813 0.024701422 0.028805241 -0.047710504 -0.05260576 -0.08027503 -0.06275199 -0.18799295
0.010616793 -0.0721532 -0.27286485 -0.078362614 0.003650693 -0.019879734 0.025401566 -0.037568793
-0.1183374 0.06161387 -0.15055986 -0.056818787 -0.113142125 0.022280097 0.07282961 -0.04188851
-0.09711979 -0.023206446 0.15680994 -0.02148588 0.09066258 -0.22773127 0.052314013 -0.035679046
0.015445613 -0.2116258 -0.15354367 0.05539955 -0.16959426 -0.064126536 -0.021313367 -0.16670221
-0.0066002076 -0.10241418 -0.28976732 -0.013076606 -0.009709972 -0.2403491 -0.12276976 -0.018054508
-0.11498754 -0.01022196 0.030199746 0.0705814 -0.049856704 0.10518936 -0.032523356 0.012290119
0.036851984 0.028919144 0.10547556 -0.24990794 0.06838389 -0.08455985 0.035971332 0.07951784
-0.08604335 -0.106556684 0.101273194 -0.16599691 -0.18202916 0.10220064 0.04041891 -0.19640695
-0.08323728 0.12669992 0.033519134 0.066525966 -0.07043518 0.11585133 -0.053850297 -0.10160541
-0.024978044 -0.084735915 -0.006065753 -0.09232687 0.18951473 0.10922988 0.0996168 -0.08846404
0.052577518 -0.045456544 0.059390046 0.24026671 -0.13544926 0.02663425 0.0031326583 -0.03614734
0.035527647 -0.07974366 0.09276302 -0.15194234 0.17754284 -0.077538066 -0.18549313 -0.1879848
0.085908286 -0.11642782 -0.18495578 -0.21603641 -0.03129276 0.18304056 -0.07570069 -0.06406666

gru.weight_ih_l1 f4 [192, 64]
00000000: 6139 e9bd 2f09 c73d beba 973d 923a 26bd
00000010: 4e05 9c3d ae86 013e b647 583d 0701 223e
00000020: df21 023e ec82 55be fc87 d0bd c607 07be
00000030: 289d 82bd 80c0 943d d48c c5bd 1be5 02be
00000040: 236f 20be 14af 46be ff8c da3d c169 403d
00000050: c2ae d5bd 38a1 833e e48b 513c b641 afbd
00000060: 982c 4d3d 1490 63be 8320 8c3c 0e60 34bd
00000070: f34c c73d ef05 15bc 8c6e 20be 9bc6 003e
00000080: dcd4 873e 73f4 88bd c0ff a63d 9d07 7d3d
00000090: 6b91 b33d 3dd5 413d 8c08 093d 80b2 fc3b
000000a0: c27f 773d a069 473e e4e3 6f3e a80f 4d3e
000000b0: 7c86 4ebe 0b2e 953c 0f38 4cbe cbc9 49be
000000c0: 5824 8e3d 3f4c 27bd 8d8a 9c3d bec7 db3d
000000d0: e3a3 673e 9b24 e73d 2219 2b3e 0ba2 5b3e
000000e0: 8076 5f3b 9e9c 5bbe 04c0 c3bd 7ee9 eb3d
000000f0: f994 193d 705e 4e3e ac14 04bc 95d4 dd3c
00000100: 8294 03be c913 05be c36b 30be 2f5d 99bd
00000110: f83b 543e 78da 5ebd e04d c2bc d41d 103e
00000120: dda1 9dbd 52a0 b03c 74db 02bf b380 a73c
00000130: c0d9 103e 0f4f e7bd 894b c1bd 1563 593e
00000140: 4bfe 0a3e ce32 0f3e 337e e2bd e537 06be
00000150: 67ad f43c 1cfa f8bb 8fca ae3e c352 0f3d
00000160: f141 a4bb 6602 1bbe 75d4 85be 5547 60be
00000170: 3ca6 31be 961a 81bd dba0 4abe bbc9 05be
00000180: 649b 8e3d c2d2 d1bd 8e0c 083e d536 0fbe
00000190: 5472 6c3e 88ce 763c 2649 73be a863 21be
000001a0: 994f 2e3e 338a 95bc 7b9e c9bc 03e4 35be
000001b0: a736 8abc d563 a3bc eda6 343e 3794 c4bc
000001c0: a428 173e ef2c e03d 8793 a33d 2a76 7ebd
000001d0: 7126 acbd 776b 01be f0a0 e9bd 7af7 e6bd
000001e0: 0d2a 823e 57ca a9be 6a11 7b3d 059e ec3d
000001f0: efcc a43d 17e0 063c 6d78 6cbd 4650 813c
00000200: 08e6 683d a820 8abe 3442 93bd 7c99 1e3c
00000210: d853 6a3e 7d42 68be c735 c43d 5db3 143e
00000220: fee7 35be cf5d a9bd 8895 c13d d8ba 1abc
00000230: afef edbc f282 6a3d e1b1 7dbd e5e5 05bd
00000240: f530 863e 301a 08bd e1d0 b6bd 1cac d33c
00000250: 7f61 9a3c a6d3 2c3e 8271 41bb 39a9 ed3d
00000260: d6a5 163e 645e 99be b49b d9bd ad4b 6dbe
00000270: f281 7dbc 5d5a 23be 9cb8 303c e3dd 113e
00000280: d265 063e fc7c 70bc c070 423e cf4e 623e
00000290: a3e3 58bd 67cd 193b 06b9 9fbe 891f f6bc
000002a0: 0801 383e 4e1a 443d 95fc db3d ce0c 0c3e
000002b0: 9ad4 0a3d 3f84 e93c 15c9 643e 561c 0cbe
000002c0: dd44 583e 1f07 2a3c 9093 79bc a4ae 8e3d
000002d0: bbd1 57bd 4238 833c 4346 06bd 2029 443e
000002e0: 1906 76bc 7037 95bd a62e 0f3d d9cf 353e
000002f0: 1a57 ee3d c1c3 ed3c 311c 923c 63c9 ae3d
00000300: 34a7 903b 9df4 0a3d f2bc 333e d29c fb3c
00000310: 4e9c 08be f297 60be 6919 dbba f6f1 8c3d
00000320: 9615 3cbe 6a1c 463d e2c8 9c3d 09cd eb3d
00000330: b636 9c3d d86f 14be 7daf 7bbe f440 c43d
00000340: ac41 0b3e acbb 2a3e 5e83 9e3d d6b3 15be
00000350: ed0a e2bd 20d8 403e a85d 413e 458f ad3e
00000360: 8ba4 a7bd f229 2abe 7711 db3d 0682 41be
00000370: 7476 633d 53d1 b83a 0bfd c6bc 33b4 e43a
00000380: d34c cabd 79d2 9a3d 1ffe e23d 340a 203e
00000390: e02e 7abd b332 fabd 0263 92bd 31c5 9cbc
000003a0: 3b20 333d c31b dd3d 6967 fcbd bc5b 483e
000003b0: 5def f43d 1213 6f3d af22 50be 3e93 c83d
000003c0: 26d2 68be 691e 8e3d 7763 de3c e94a 95bd
000003d0: 2f2d d4bd 0c6e 533d ca73 77bd 1d5c 543e
000003e0: 7856 0c3e 9d2f 32bd 356d 1cbb 6d5e 443e
000003f0: 54a7 2b3e 0cfb 873b e481 61bd d65f 02be
-0.11387897 0.097185485 0.07408665 -0.0405832 0.07618199 0.12649032 0.052802764 0.15820704
0.12708233 -0.20850724 -0.10182187 -0.13186559 -0.063776314 0.07263279 -0.096460015 -0.1278271
-0.15667395 -0.19402725 0.10671424 0.046975855 -0.10433723 0.25708938 0.0127897 -0.08557455
0.050091356 -0.2222293 0.017105347 -0.044036917 0.09731474 -0.009095653 -0.1566717 0.12575762
0.26529586 -0.0668725 0.08154249 0.06177484 0.08767971 0.0473225 0.033455417 0.0077117085
0.060424574 0.19473886 0.23426777 0.20025504 -0.20168489 0.018210432 -0.1994326 -0.19705884
0.06940526 -0.0408442 0.07643614 0.10731457 0.22621112 0.11286279 0.16708806 0.21448533
0.003409773 -0.21446463 -0.095581084 0.115191445 0.037495587 0.20153213 -0.008061569 0.027078906
-0.1284962 -0.12995829 -0.17228608 -0.074884765 0.20726001 -0.054407567 -0.023718774 0.14073879
-0.076968886 0.021560822 -0.5111611 0.02044711 0.14145565 -0.11294376 -0.09438235 0.21229203
0.13573568 0.13984224 -0.11059227 -0.1310726 0.02986784 -0.0075981747 0.34138915 0.034991037
-0.0050127436 -0.15137634 -0.26138654 -0.21902211 -0.1734857 -0.06303899 -0.19787924 -0.13065235
0.06963232 -0.10245277 0.13286039 -0.1398576 0.23090488 0.015063889 -0.23758373 -0.15760672
0.17022552 -0.018254375 -0.024611702 -0.17762761 -0.016871763 -0.019945065 0.17641802 -0.023996456
0.14761597 0.109460704 0.07987123 -0.06212441 -0.084057696 -0.12638651 -0.114076495 -0.11277671
0.25422707 -0.33162186 0.061295904 0.11553577 0.080469005 0.008232138 -0.057732034 0.015785348
0.05686 -0.2697804 -0.071903616 0.009680148 0.22883546 -0.22681613 0.0958057 0.14521547
-0.17764279 -0.08269846 0.09452349 -0.009443961 -0.029044954 0.057253785 -0.061937217 -0.032689948
0.26209226 -0.0332281 -0.08926559 0.025838904 0.018845318 0.16877612 -0.0029517119 0.11604542
0.14711699 -0.29954827 -0.10625401 -0.231734 -0.015472876 -0.1595244 0.010786202 0.142448
0.13124779 -0.014678236 0.18988323 0.22100376 -0.052951466 0.0023468377 -0.3119585 -0.030044334
0.17969143 0.04787665 0.107415356 0.1367676 0.03389416 0.028505443 0.22342332 -0.13682684
0.2112002 0.010377674 -0.015232936 0.06966904 -0.05269025 0.016018037 -0.03278185 0.19156313
-0.015016102 -0.072859645 0.034956597 0.17755069 0.11637707 0.029024007 0.017835708 0.08534505
0.0044144634 0.033924688 0.17552546 0.030714426 -0.13340876 -0.21932963 -0.0016715947 0.06882088
-0.1836761 0.04836694 0.07655503 0.11513717 0.07627623 -0.1449579 -0.24578662 0.09582701
0.1359927 0.16673154 0.077399 -0.14619383 -0.1103724 0.18832445 0.18883383 0.33898368
-0.08185681 -0.16617563 0.106966905 -0.18897256 0.055532888 0.0014100469 -0.024290582 0.0017448723
-0.09877934 0.07559676 0.11083626 0.15628892 -0.06107986 -0.12216701 -0.071477905 -0.019136997
0.04373191 0.10796311 -0.123244114 0.19566244 0.119597174 0.058367796 -0.2032573 0.09793709
-0.22736415 0.06939394 0.027147038 -0.072896786 -0.103601806 0.05161862 -0.06041316 0.20738263
0.1370486 -0.04350244 -0.0023868803 0.19176646 0.1676305 0.0041498 -0.055055514 -0.12731871

gru.weight_hh_l1 f4 [192, 64]
00000000: 2528 21be 7c1c 8a3e 689c 1d3d 6acc 3c3e
00000010: 3bc0 183e 6ac7 a9bd fc2e e8bd 5464 12bd
00000020: d441 c0bd a0fa ec3c 169f d73d b274 ed3d
00000030: 4530 97bd 2f63 873b ca1b a73b 947d 113e
00000040: 02d4 4ebe 3d59 5cbd f885 b2bc c153 7e3d
00000050: a2b5 5bbc 1eba 603e 3dab 76bd 710a 123e
00000060: 66c1 cf3d 7715 203e 67cd ea3d 6d02 ccbd
00000070: 324f ff3d b416 9abc 0b8d cc3d e529 40be
00000080: d8dc 3dbd 4473 013e a585 623e fea8 d7bd
00000090: d446 38bd 728f 2fbc 2391 2b3e 05a3 cebd
000000a0: c202 a2be b1cf 09bd 1b80 3abe eb18 95bd
000000b0: 4364 8dbd 8304 003e 908e 6e3c 55ae 67be
000000c0: 42cb 453e 827a c43d ecb6 923d 5ddb 813e
000000d0: 931c 11be 4279 053e 85fc 37bd 8295 18be
000000e0: 007d 0cbe 143a ac3c 7666 903e 281c 1ebe
000000f0: 92fa 0dbd 6fd9 ec3c 6081 383d 1da9 1dbd
00000100: 2e06 d3bd a7f7 f73d cbc0 0dbd a14d 76bc
00000110: f4d9 81bb c68a 3c3c 9709 613d 81c8 77bd
00000120: 025d e33c 0ddc 0cbb 5e66 e33d 7cfd dfbc
00000130: d936 433c f266 0ebe d980 b3bd cc48 c3bd
00000140: 628f dfbd ffc6 773d 232b b53d 3788 673c
00000150: 443f 28bd 786a 003e 2f2a dcbc a737 903e
00000160: d90f 493e 783d 7ebd 803e 29be ccc9 9c3d
00000170: 8a68 53bc 3a96 1fbe 64e6 183e 27c8 f4bd
00000180: dd72 68bd 9e64 a9bd b0e6 1f3e bbb4 06be
00000190: a695 d9bb ebfe bebd 88b5 7cbe a97a f73d
000001a0: fcb2 22be a81f 29be dfcf 10bd ec38 9fbd
000001b0: 2d1f a13d df9b 213d 287d 0e3e 42ab 273e
000001c0: debf 4a3e 8f12 b23d 5a9a 7a3d 8a92 38bd
000001d0: 8080 4f3a 731c 443e 7f5b d6bd f6c6 053e
000001e0: cd5d dcbd 076b c0bd ce47 42bd b427 8ebc
000001f0: b6e1 843d d8ff 6ebc 79c5 2e3e eac1 20be
00000200: eca9 903c 73c7 a3bd 7e4b f6bd 2dc9 213e
00000210: c60a f9bd 244f 343c 81ba 383e 8827 a2bd
00000220: b76b a9bd 2d43 17bd 1db0 cc3d 7ed3 1b3e
00000230: 0ce4 01be 85bc 6ebc ad3d 3c3e 2556 acbd
00000240: 6505 82bd 2a16 cd3d a194 62bd b4e2 0dbe
00000250: fff8 42be cd05 9c3c 47f5 e9bd 09b5 32bc
00000260: dfe6 a03e 40e4 aebd 1da8 f4bd 7e86 46bd
00000270: 3479 ebbd fce3 2abe db32 b93c 9f3c 61be
00000280: 102d 00be 3047 003e 88dd 343d 9056 70be
00000290: 31ba 26be 9a3b 1bbe 1d44 d2bd 561b 4e3c
000002a0: 4896 873d bc64 63bd 937d 91bc 2849 89bd
000002b0: b216 903d f4e2 92bd b486 09bd bb06 10bd
000002c0: 8d69 dd3d cba4 003d b95d f8bd c373 d33d
000002d0: d033 4abe 0ea2 da3d b3e6 29ba 3b1b 5dbe
000002e0: 9db7 1fbd 18bf 46bd 4b26 89bd 3934 f43d
000002f0: 7a05 4f3b f9e6 31bd 14f9 96bd e720 1bbe
00000300: eb68 79bd 17e1 39be f007 f2bb 6132 843d
00000310: bf91 edbd a97d 583e 9671 30bc 6dee 373d
00000320: 6110 a8bd 9cfb 49be 93ab 203e 0a6d f4bd
00000330: fd8b cdbc 60bb 393d 2131 5dba add6 c9bd
00000340: dade 433e 084c 343e 7b16 57bc 344e 453d
00000350: bd63 0b3c 4416 313e 0e2b a5bd d513 b13d
00000360: c3d3 5c3b 140a fc3d cb22 533e 6f98 183e
00000370: a33a d53d 5e44 c63e 4e4c 07bd d649 5f3e
00000380: 2bc5 22bd e5db d0bd b228 513e b362 e53d
00000390: 2299 a5bd aa63 09be 40d5 42be d2e6 213e
000003a0: 10ac f7bd c74f 283d fbbb 95bd 777f 56bd
000003b0: d5ba 45bd 4548 d1bb fb63 993c 0519 8e3c
000003c0: d4a9 993d d114 08be 7ca3 0d3e 1be5 10be
000003d0: 02d5 f1bd 255d 26bc 63d2 0f3c c5ef 8bbd
000003e0: 0a07 8f3d 22d1 59be 20b1 00bd fd37 89bd
000003f0: 53cd 013d b2fd cdbd b900 223c 95ae 2dbe
-0.1573797 0.26974857 0.03847924 0.18437353 0.1491708 -0.08289988 -0.113370866 -0.03574021
-0.09387556 0.028928101 0.1052839 0.115945235 -0.073822536 0.0041316967 0.0050997483 0.1420806
-0.20198062 -0.05379604 -0.021792397 0.062091593 -0.013410004 0.21945998 -0.0602219 0.14261796
0.1014431 0.15633188 0.11464959 -0.099614 0.12466277 -0.018809654 0.09987839 -0.18765981
-0.04635319 0.12641627 0.22121294 -0.105302796 -0.044989422 -0.010715352 0.16754584 -0.10089687
-0.3164273 -0.033645336 -0.18212931 -0.07280143 -0.06903889 0.12501721 0.014560357 -0.22625096
0.19315818 0.09593679 0.07163796 0.25362673 -0.14171056 0.13034537 -0.044918556 -0.14900783
-0.13719559 0.021023788 0.28203171 -0.15440428 -0.03466279 0.028912274 0.045045257 -0.038491357
-0.10303913 0.12107783 -0.03460769 -0.015033157 -0.0039627496 0.011507696 0.054940786 -0.06049395
0.02775431 -0.0021493465 0.11103509 -0.02734255 0.011914932 -0.13906458 -0.0876481 -0.09535369
-0.1091602 0.06049251 0.08846118 0.014131597 -0.04107596 0.12540615 -0.026875583 0.2816746
0.19634952 -0.06207034 -0.16527748 0.07655677 -0.012903342 -0.1558465 0.14931637 -0.119522385
-0.056750167 -0.08271144 0.15615344 -0.1315488 -0.006640154 -0.093259655 -0.24678624 0.120839424
-0.1588859 -0.16515982 -0.03535449 -0.07774529 0.078672744 0.03945529 0.13914931 0.16373923
0.19799754 0.08694946 0.061182357 -0.045061626 0.00079155713 0.19151478 -0.1046667 0.13064179
-0.107600786 -0.09395414 -0.04743176 -0.017352916 0.064883634 -0.014587365 0.17067517 -0.15698972
0.01765915 -0.07997026 -0.12026118 0.15799399 -0.12160258 0.011005197 0.18039896 -0.07917696
-0.08272498 -0.0369293 0.099945284 0.15217397 -0.12684649 -0.014571314 0.18382902 -0.08414868
-0.06348685 0.10013993 -0.055317525 -0.13856012 -0.19040297 0.019045735 -0.11423736 -0.01090742
0.3142614 -0.08539629 -0.119461276 -0.048468105 -0.11497727 -0.16688532 0.022607258 -0.21995781
-0.1251719 0.12527156 0.04415658 -0.23470521 -0.16281964 -0.15159455 -0.10266898 0.01257976
0.06620461 -0.05551599 -0.017760074 -0.067034066 0.07035579 -0.07172194 -0.03357573 -0.03516267
0.10811148 0.03140716 -0.12127251 0.10324814 -0.19746327 0.10675441 -0.0006481215 -0.21592419
-0.038993467 -0.048522085 -0.06696757 0.11924023 0.0031588958 -0.043433163 -0.07371727 -0.1514927
-0.060891073 -0.18152271 -0.0073862 0.064549215 -0.116000645 0.21141686 -0.0107692685 0.044905115
-0.08206249 -0.19724888 0.1569045 -0.1193486 -0.025091166 0.04534471 -0.0008437802 -0.09855399
0.1912798 0.17607129 -0.013127918 0.048170283 0.008507666 0.1729365 -0.08064853 0.08646361
0.0033695556 0.1230661 0.20618741 0.14901899 0.10411575 0.38724035 -0.033031754 0.2180551
-0.039738815 -0.101981916 0.2042568 0.11200466 -0.080858484 -0.13416925 -0.19026661 0.15810707
-0.12093365 0.041091707 -0.07311245 -0.052367654 -0.04827388 -0.006386789 0.018724432 0.017345915
0.07503095 -0.13289191 0.13831896 -0.14149897 -0.11808206 -0.010154043 0.008778187 -0.06832842
0.069837645 -0.21271184 -0.03141892 -0.06700132 0.031689953 -0.10058154 0.009887868 -0.16961129

gru.bias_ih_l1 f4 [192]
00000000: b26d e23c 99c5 1cbe 4ad7 bdbd 28c9 9e3c
00000010: f003 8abd 4c45 0f3e 7962 fbbd 20c2 233c
00000020: 0676 d3bb 9a5d a63d 4058 9ebd 96cd 0a3e
00000030: 7777 8e3c 4b1e dc3d b662 7b3d 94e0 7e3d
00000040: f3d0 9c3b 0cd5 b93d 97fc 10be 60a1 883d
00000050: 9714 cebc b26d 213e bb1f c13b c923 8ebd
00000060: 55c4 923d b2d4 d3bd 5965 ad3d 1095 89bd
00000070: 8174 ecbc 6a69 193e 9130 c9bd 11b2 3c3e
00000080: 2ba1 c73c b901 21bd 2c72 87bd a1f6 273d
00000090: a158 a13c fd33 36bd 3065 533d df13 ec3d
000000a0: 6ed9 a8bd a895 0dbe 8265 c33d 40f0 773c
000000b0: 7d43 3c3d 5835 143e 381a 143e 708c ea3d
000000c0: 205a c5bc a149 bd3c 5110 fd3d bdb5 9cba
000000d0: 2690 3f3d 2edb 073e 0156 c4bc ed2d 1b3e
000000e0: dcc8 41bd 8571 a83d eba0 c4bc 1fdd de3c
000000f0: 4cd5 bf3d b69b 653c 7bde a6bd 8190 0b3c
00000100: 8b48 64bd ae30 6abd 2e54 07be bec8 fabd
00000110: 00bb 1e3d 3533 cebd b999 c63c c48c 8dbe
00000120: a10c 22be 88f2 38bc 14f8 b8bd 6006 bfbd
00000130: 220c 76be 74d0 89bd ea52 3dbe 019b b6bd
00000140: ac14 48be 086b 2bbe ad6c a0be 36e0 f5bd
00000150: 965b 7abd 5805 813d 1d07 9fba 9c11 3bbd
00000160: 551b 143e 4ec3 07bd a7f6 793a 5085 40ba
00000170: c046 14be d843 15be be4c 3dbe 4d01 febd
00000180: 573d a6be e7d4 62be d3c3 2fbe f5c8 47be
00000190: d648 ffbc 379f 60be c4ec c6bd 463c 6bbe
000001a0: 18dc 12be 4b94 40be 3677 8cbd 2b85 bfbe
000001b0: 3430 21be 9515 3abd 7dec 4ebe d267 f63d
000001c0: 5c9f 3b3d 2c25 48be f204 13be 8b7a 20be
000001d0: 8c6f 5cbe aed6 68be 9257 54be 8030 04be
000001e0: 37de 0b3d edfc 17be 7543 1e3d f0c2 84be
000001f0: 0cd5 63be 1fc5 a0bd 060d ddbc 89eb 7bbd
00000200: d22e 6f3d 20d6 06bd 0965 c43d 3c16 1cbc
00000210: ee83 993d 0348 e3bc 7470 083d 4e0f fd3d
00000220: 10da 87bd 75bf 87bd 4fb4 e8bd 9bc8 923c
00000230: a6b8 0e3e df6d 22bd 0df4 92bc ae95 10bc
00000240: 21d9 94bd 6568 86bd 6208 933d ca30 8c3d
00000250: 0ebc 59bd 86fd fe3c 6cbd f2bc 68bd bb3d
00000260: f9fc 86bd 0f50 b4bb a8da 133e f125 4fbc
00000270: e4dd df3d d626 8ebd 5f77 18bd ff92 9abd
00000280: cae7 cfbd aaf8 7e3d 48d6 fbbd 9866 11bd
00000290: d5fe e13d 677a e63a 4335 203d 587e 513d
000002a0: a108 7b3d 2ace cfbd 4b62 f83c 7443 c33c
000002b0: aeff 15be c9f8 67bd 6c73 0fbd 596c f03c
000002c0: de7b 423d 4f93 863b a0d7 0cbe f3e8 12bc
000002d0: e23c 9d3d 20bd 093e b87a 0fbe 4e8a a7bd
000002e0: fc4a 03be 42e0 e5bc 14e9 3bbb 37ab 0bbe
000002f0: 8b51 6cbd f2c8 643d c6d9 163b 34bf 30bc
0.027640197 -0.15309753 -0.09269579 0.019383028 -0.06739032 0.13991278 -0.122746415 0.0099950135
-0.0064532785 0.08123322 -0.07731676 0.13554987 0.01739095 0.107479654 0.061373435 0.062225893
0.004785651 0.090738386 -0.14158855 0.06671405 -0.025156302 0.15764502 0.005893675 -0.06940419
0.071663536 -0.10343303 0.08466596 -0.067178845 -0.028864147 0.14981619 -0.098237164 0.18427302
0.024368843 -0.039308283 -0.066135734 0.041006688 0.019695582 -0.044483174 0.05161017 0.115272276
-0.082445964 -0.1382662 0.095408455 0.015132964 0.0459628 0.14473474 0.14463127 0.114525676
-0.024090827 0.023106398 0.12356628 -0.0011956018 0.04676833 0.13267204 -0.023966791 0.15154238
-0.047310695 0.08224777 -0.024002513 0.027205048 0.09366855 0.014014175 -0.081479035 0.008518339
-0.055733245 -0.05717533 -0.13215706 -0.1224532 0.038752556 -0.10068361 0.024243223 -0.27646458
-0.1582513 -0.011288293 -0.09031692 -0.09327388 -0.24028066 -0.067292124 -0.1848866 -0.089162834
-0.19539136 -0.16740048 -0.31332913 -0.120056555 -0.0611225 0.06299847 -0.0012132857 -0.04567109
0.14463551 -0.03314524 0.000953535 -0.0007344084 -0.14480114 -0.14576662 -0.18486306 -0.12402592
-0.32468674 -0.22151528 -0.17164545 -0.19510253 -0.03116266 -0.21935736 -0.09713128 -0.22972211
-0.14341772 -0.1880657 -0.06858675 -0.37406287 -0.15741044 -0.04543074 -0.202074 0.12031521
0.045806274 -0.1954543 -0.14357355 -0.15671746 -0.21526927 -0.22738144 -0.2073653 -0.12909126
0.034147467 -0.14842577 0.03863855 -0.25929976 -0.2224924 -0.07850098 -0.02698375 -0.06150392
0.05839426 -0.03291905 0.095895834 -0.009526785 0.07495867 -0.027744299 0.03331037 0.12356435
-0.06633389 -0.066283144 -0.11362516 0.017917922 0.13937625 -0.039655562 -0.017938638 -0.008824749
-0.072679766 -0.065628804 0.07179333 0.06845243 -0.05315786 0.031126749 -0.029631339 0.09166986
-0.065912195 -0.005502708 0.1443888 -0.012643323 0.10930994 -0.06941001 -0.037223216 -0.075475685
-0.10151632 0.062248863 -0.1229673 -0.03549823 0.110349335 0.0017584086 0.039113294 0.05114588
0.061287526 -0.101467445 0.030320307 0.023835875 -0.14648315 -0.056633744 -0.035022184 0.02934854
0.04748141 0.004106916 -0.1375413 -0.008966672 0.07677628 0.13451052 -0.14011657 -0.081806764
-0.12821573 -0.028061036 -0.002867286 -0.13639532 -0.057694953 0.0558557 0.0023017987 -0.010787774

gru.bias_hh_l1 f4 [192]
00000000: 9a3d 293d b31d c9bb 93eb 7c3d 819a a2bd
00000010: 4b07 273d 4dfa f83d 761b 0d3d cef1 8b38
00000020: 8f7c a33c bbd8 003e 9cd3 64bd 9136 f63d
00000030: d042 713d 70a4 003e 593f a4bc 09d0 20bd
00000040: 263e 373e 76ab 253d d6b0 e9bd c63d 993b
00000050: 1276 053d 8eb0 003d 3e3f 403e df7a a8bd
00000060: ee57 0a3d ff3d bebd 8d73 543e 4cde b2bc
00000070: e3ff f53d 360b 163e d155 38be e9fd 0e3e
00000080: 2627 22bd d473 6dbd c0d4 1bbe 6804 f73c
00000090: a7d4 273d 9522 003e e244 1dbd d1f7 123c
000000a0: 1257 95bd 90f9 853d b22f 953c 6c31 853d
000000b0: 705e 83bd fe51 073e 5266 c23d efea 323e
000000c0: df2b 72bd 137c cfbd 6109 86bd 887e a5bd
000000d0: 0d86 5abd 99e7 2b3d 6793 71bd 1665 e83d
000000e0: ec9e 713d 67d6 19bb c30e 363b c193 373e
000000f0: db76 3a3e a522 d73d dcee 1dbd db42 08bd
00000100: fe3d aebd a139 cdbd 139d a5bd e5e7 fb3c
00000110: 86fa a33d 8a8f 973d a5fd 743c b975 4fbe
00000120: c864 ccbd 89c2 203c 7bb1 4abe b83d 1f3d
00000130: 343b 6fbe 646b 1dbe e914 b6bd 2abe 613c
00000140: fbcc 4fbe c37e 11bb 2554 a1be b012 ea3b
00000150: ad8d 71be d4bd 16bd e66a 03be 319e e3bc
00000160: 4964 06bd 6f2a 12be a899 b63c b7f1 27be
00000170: 00b9 26be a882 b93d eacb 35be 3a84 51be
00000180: 7502 c7be f875 6ebd f7ff 94bd afda d6bd
00000190: 832b ec3c bcc9 12be 304f 7bbe d2f0 97be
000001a0: f6d1 5abd 0a3d 94bd 5117 21be d101 bebe
000001b0: 13da 62be 9e37 d3bd c6f8 bfbd 116a c83d
000001c0: 8516 153d 0fb2 c2bd cc80 b6bd 3330 3abe
000001d0: 626b b2bd bff4 29be 99cc d2bd b036 41be
000001e0: 3a96 cd3c 3693 9bbe e6a1 153d 0e02 d6bd
000001f0: 59f7 7fbc acd9 52be e9d2 65be b5a8 45bd
00000200: 583a bcbd 802f 993d 0f00 f7ba f900 583d
00000210: a497 96bd 3ec4 26bd fce8 53bd f432 373b
00000220: 12f1 a83c db51 71bd 3c68 883d 677b 2ebd
00000230: 2e88 743e 4a18 12be 810a ce3d a79e 023e
00000240: 756e bd3d a6ee e8bd 23e7 e6bd ca0a 8cbd
00000250: 023e 1c3e 9c0a e13d 8b71 163c 836f 3fbd
00000260: a815 91bd a37c a23b 2f60 703d 1ae3 113b
00000270: f9ae fbbd 686a bd3d 3e0b 383d ecc0 d43d
00000280: add1 203d 470b 1abd ab4d 66bd 24a5 fc3c
00000290: f3cd 05bd e743 3b3e 9ac9 c4bd 9afa 1b3e
000002a0: 9a54 0ebd 4cbd c53d 9b73 443d 079a 4d3d
000002b0: 6878 613d 649c bf3d ded3 8a3c 8301 d0bc
000002c0: 822a 6ebd c58e 98bd 8322 91bd 0914 f1bd
000002d0: e5b3 403d 6617 143e d4cb a93d 7461 1abc
000002e0: cb7a 79bd f950 a13d f108 c73d a329 8ebd
000002f0: 346d dcbc d94b aa3d 83a9 b83b f710 823d
0.041318513 -0.0061375736 0.0617481 -0.079396255 0.04077844 0.12157116 0.034450017 6.673076e-05
0.019956855 0.12582676 -0.05586587 0.120221265 0.058901608 0.12562728 -0.020049738 -0.039260898
0.17894801 0.04044672 -0.11410682 0.0046765534 0.032583304 0.031418376 0.18774125 -0.08226561
0.033775263 -0.092891686 0.20747204 -0.021834515 0.12011697 0.14652714 -0.18001486 0.13964047
-0.039588116 -0.05797179 -0.15217876 0.030153468 0.040974285 0.12513192 -0.03839577 0.008970217
-0.07291998 0.06541741 0.01821122 0.06503567 -0.06414497 0.13214871 0.09492172 0.17472433
-0.05912387 -0.10131087 -0.06544758 -0.080807745 -0.053350497 0.041968916 -0.058978464 0.113474056
0.05898945 -0.002347374 0.0027779795 0.17927457 0.18209402 0.10504655 -0.038557872 -0.033266883
-0.08507918 -0.100207575 -0.080866 0.030750224 0.08006768 0.07400425 0.014953052 -0.20259751
-0.0998016 0.009812006 -0.19794266 0.03887722 -0.23362428 -0.15372998 -0.08890707 0.013778249
-0.20293038 -0.00222008 -0.3150951 0.007143341 -0.23589201 -0.036802128 -0.12833747 -0.027785392
-0.032810483 -0.14274 0.022290066 -0.164008 -0.1628151 0.09058124 -0.17753568 -0.20460597
-0.38869062 -0.058217973 -0.07275384 -0.10490929 0.028829342 -0.14334768 -0.24541926 -0.2967592
-0.05342289 -0.07238205 -0.15731551 -0.3711076 -0.22153501 -0.103133425 -0.09373622 0.097858556
0.03639843 -0.09506618 -0.08911285 -0.18182449 -0.08711888 -0.1659727 -0.1029293 -0.18868518
0.025096048 -0.3038575 0.03653135 -0.10449611 -0.015622937 -0.20590848 -0.22443737 -0.048256595
-0.09190816 0.07479763 -0.0018844622 0.052735303 -0.07353142 -0.040714495 -0.051735863 0.0027953954
0.020622764 -0.058915954 0.06660506 -0.042598154 0.23880073 -0.14267078 0.10060597 0.12755834
0.09249584 -0.113736436 -0.112745546 -0.06837995 0.15258029 0.10988352 0.009182344 -0.046737205
-0.07084209 0.0049587055 0.058685478 0.0022260607 -0.12289233 0.09248811 0.044932596 0.103883594
0.039262462 -0.03760841 -0.056226414 0.030840464 -0.03266711 0.18287621 -0.09608765 0.15232316
-0.03474865 0.09655246 0.047961812 0.05019572 0.05504647 0.09356001 0.01694673 -0.025391346
-0.058146007 -0.07449106 -0.07086661 -0.117713995 0.04704656 0.14462051 0.0829083 -0.009422649
-0.06090812 0.078767724 0.09718502 -0.06941535 -0.02690754 0.08315248 0.0056354417 0.06350892

gru.weight_ih_l2 f4 [192, 64]
00000000: 1c4b 843d 7c11 813d 4c7f 663d 2ac4 25bd
00000010: 92bd 79be bb6b 1fbe 200a 35be fe88 ebbd
00000020: 5902 6d3e e859 23bb aa80 253e 846b 283e
00000030: ba5c 8f3c 5aaa abbd d0dc 24be 3159 c1bd
00000040: f2fc c73c 6920 7e3e d2c7 c6bd ca4a 32bd
00000050: 7d9b a93d f6c0 00be 71fa c8bc 8598 243d
00000060: a3e5 fd3d 3708 c03d a518 37be 4fa1 59bc
00000070: 08e9 63bd b7ce 44bd 0936 f43c c9b5 06be
00000080: 4267 bf3c 9e55 193d 1a14 263e a617 0abd
00000090: b7c4 4c3c d286 363d f15e f03d 75d1 0abe
000000a0: 5d65 f53d ec15 4ebb c01e 173c 8a1c 77bc
000000b0: 5b5d cb3c 38b2 673d 5548 153e 1bb8 29be
000000c0: 10c8 ab3e 0f5b ccbd 9bec 943d e847 51be
000000d0: c6ca 39bc 750d b43d 87f6 5f3e 8e3f d1bd
000000e0: ec30 99bd 71bd c9bc ac21 ebbc 73d1 993d
000000f0: 4fc2 753d d185 aa3c 8d83 38be 9c97 e2bd
00000100: 4a0a d13c 0f85 e2bd 03ef 16be d09b 31be
00000110: d9c2 abbc a31c ce3d f803 913b e79b 8e3d
00000120: 25aa 573e 6a41 00bb 7dfc e73c 2520 16bc
00000130: b181 073d d1f6 433d b17a 11bb 2630 113b
00000140: 9f45 1fbd 7574 84bd 7f9b 7bbc 3459 623e
00000150: bdfd e73d a3ea 1c3d 1f68 a93d 4420 80bc
00000160: 3894 6bbd 5cde 933d e64d b6bd e31c 223e
00000170: 7d04 1e3e 4c13 0e3e 3783 82bc 9e96 c7bd
00000180: e809 b5bd 1f5e 1d3e 1a2f d0bd 09d9 4ebd
00000190: 39e1 e63c ba72 a1bd 4a90 053d dc1d 143e
000001a0: 7cce d33c 90d1 c8bc 005e edbd 6481 07be
000001b0: eb24 4d3d b87e 45be 8d8c bfbc bed9 b8bc
000001c0: e793 593e 5e1a 213d 998e 0ebd 88b6 55bd
000001d0: 6207 84bd 2efb ed3c 6d07 db3d 0837 a0bb
000001e0: 1ccf bebd 21e6 8fbc 4bc6 e0bd c261 b13d
000001f0: 8097 b83d 92b1 743d 3368 f8bd 3364 da3d
00000200: ab85 bebc 492b c13c 4fc0 853d 8287 0abd
00000210: 9b0c 8fbc 4429 32bc e30e 16bd ee4d 2a3e
00000220: acf6 ea3c 9c2c b73d 31ce e7bd d495 a2bd
00000230: 2980 663e b709 11be 3403 e2bd 84b0 353e
00000240: aa18 ff3c bea2 963d 1632 f23d dcf5 44be
00000250: 9b20 8d3d 7184 72be c52a 21be 0e69 80bd
00000260: a9e5 6e3d 1f20 fb3d 8c39 4ebe 5fdf 33be
00000270: 7e0b b03c a9f7 e23c 2982 46bd 7a9f 473d
00000280: c7e9 7cbe ddd7 c4bd 0861 bb3d 787c 703d
00000290: 7735 cd3d 0305 8d3d caf6 49bd 6f4c 9d3c
000002a0: 756f 0fbe c3ce 48be ffb6 be3d 454c b73d
000002b0: 2127 46be 94a7 553d 683f 4c3d eac4 17be
000002c0: 330f 27be 6f77 a7bd 7c9f 1b3d 8e2d 2cbd
000002d0: 7f73 13be 39f3 8c3d e0da 06bc 5c3a b5bc
000002e0: 2bfa c4bb df09 8a3d 1d1c f53c 15ff 0f3d
000002f0: 685f 183c 99fd a4bc cd49 71bc c1e2 3bbe
00000300: 4039 c3bd 1360 c53d 8b15 2c3d 5ab7 5e3c
00000310: fde7 1bbe 4096 253d aa8a 02be 4e45 70bd
00000320: 4250 f1bd a0bd ca3d 12e3 373d e03f b53d
00000330: dc92 1a3e 5895 24bd 9471 aabd ee7d 153e
00000340: d760 193d ba93 173c f27c 183e 0c8e 86bc
00000350: c17b 2cbd 7dea d8bd 397e 89bb 71ed 273e
00000360: bd21 bbbd 5c51 6c3e 4248 2abe 1581 8d3d
00000370: 814d 3b3e fceb 8c3d f9fc 7dbd fcd3 0abe
00000380: ff42 3cbc 8c94 a33d 27e1 8f3d 2f37 d03d
00000390: 29d1 24bd 7194 ce3d caf7 eb3d 8a11 923c
000003a0: b997 9f3d ab9d 74bd 5ec8 95bd 8cf7 893d
000003b0: 1265 3dbe a4f1 abba fd19 8a3d 0e74 0fbe
000003c0: 3e64 41bd 763e 8a3d be77 fcbd af04 eb3d
000003d0: 29de 86bd f9a9 9dbd da5e 2d3d bed8 e1bb
000003e0: 3995 d3bc b448 493d 1e5f bebd 3354 293c
000003f0: a56b b3bd 1ce5 a83d 21ee f5bd c94b 393d
0.064596385 0.06302163 0.056273744 -0.04047028 -0.24388722 -0.1556844 -0.17679644 -0.115007386
0.23145427 -0.0024925414 0.16162363 0.16447264 0.01750027 -0.08382101 -0.16099858 -0.0944084
0.024412606 0.24817051 -0.097060814 -0.043528356 0.0828161 -0.12573609 -0.024533482 0.040184516
0.12397315 0.09376567 -0.17880495 -0.013283088 -0.055642158 -0.0480487 0.029810922 -0.13155283
0.023364667 0.037435167 0.16218606 -0.03371396 0.012498072 0.04456217 0.11736859 -0.13556464
0.11982224 -0.0031446172 0.00922364 -0.015082488 0.024824789 0.056566447 0.14578374 -0.16574137
0.33551073 -0.099783055 0.072716914 -0.20437586 -0.011339849 0.08791629 0.21871386 -0.102172
-0.07480034 -0.024626466 -0.02870258 0.075106524 0.05999976 0.020815762 -0.18018933 -0.110640734
0.025517602 -0.11060535 -0.14739613 -0.17344594 -0.020966934 0.10064056 0.004425522 0.0696333
0.21060999 -0.001957024 0.028318638 -0.009162937 0.033082668 0.047842804 -0.0022198374 0.0022153943
-0.038884755 -0.06467525 -0.015356897 0.22104341 0.113276936 0.038309705 0.08271813 -0.015640385
-0.0575144 0.07220146 -0.08901577 0.15831332 0.154314 0.13874549 -0.015931709 -0.09745525
-0.0883978 0.15367936 -0.10165234 -0.05049995 0.028183566 -0.078832105 0.032608308 0.14464515
0.025855295 -0.02451399 -0.11590195 -0.13232952 0.050084036 -0.1928662 -0.02338245 -0.022564765
0.21247827 0.039331786 -0.03480396 -0.05217603 -0.06446721 0.029050436 0.10694776 -0.0048893727
-0.09316847 -0.017565789 -0.109753214 0.08661224 0.09013271 0.059739657 -0.121292494 0.10663643
-0.023257097 0.02358021 0.065308206 -0.033820637 -0.017462065 -0.010874096 -0.03663529 0.1663129
0.028682075 0.089440554 -0.11318625 -0.07938734 0.22509827 -0.14163862 -0.11035767 0.17743117
0.03113969 0.07355259 0.118259594 -0.19234413 0.068909846 -0.23683335 -0.15738972 -0.062700376
0.05832449 0.12261986 -0.2013914 -0.17565678 0.021489855 0.027705984 -0.048463974 0.048736073
-0.24698554 -0.09611485 0.091493666 0.058712453 0.10019963 0.068857215 -0.049307622 0.019201485
-0.14007361 -0.19610123 0.093122475 0.08950094 -0.19350864 0.052161768 0.049865156 -0.1482121
-0.16314392 -0.08177077 0.037993893 -0.04203563 -0.14399527 0.068823285 -0.008230895 -0.022122554
-0.0060112677 0.06740164 0.029920632 0.035155375 0.00930009 -0.020140456 -0.014727068 -0.18348219
-0.09532404 0.09637465 0.042012732 0.013593519 -0.15225215 0.040426493 -0.12748209 -0.058659844
-0.11782886 0.09899449 0.044894286 0.08850074 0.15095085 -0.040181488 -0.083224446 0.1459882
0.03744587 0.009251529 0.14891413 -0.016425155 -0.04211021 -0.105916 -0.004195955 0.1639917
-0.091372944 0.23077911 -0.16629127 0.06909386 0.18291284 0.06880948 -0.06200883 -0.13557428
-0.0114905825 0.079873174 0.07025366 0.101667754 -0.040238533 0.10086907 0.115218714 0.017830629
0.07792611 -0.059720676 -0.07313608 0.06736669 -0.18495587 -0.0013118279 0.06743238 -0.14009115
-0.04721474 0.06750195 -0.123275265 0.11475503 -0.065853424 -0.07698435 0.042326786 -0.0068922928
-0.02582799 0.0491416 -0.09295486 0.010335016 -0.08760766 0.08246824 -0.1200831 0.04523829
