results/lstm_2023-09-18_20-39/lstm.pth (torch, 981347 bytes, 22 tensors)

lstm.weight_ih_l0 f4 [256, 366]
000000 50 b5 22 be bf d0 c9 bd 0b b3 52 3d 6c cb 1d bd
       -0.15889478 -0.09854268 0.05144028 -0.038524076
000010 ae 93 01 3e c2 db 1e bd 6a 99 be 3d c8 4c fd 3d
       0.12653992 -0.038783796 0.09306605 0.123681605
000020 8d 9f 8a 3e 5b 88 95 3d 3a 5c 75 3e 64 55 ab 3d
       0.27074853 0.07301398 0.23960963 0.08365896
000030 60 33 7d 3d 41 43 f2 3d c0 7a 43 3e 0f 6e b7 3d
       0.061816573 0.11829234 0.19089794 0.08956539
000040 4b 57 c1 3d 88 64 02 3e 37 81 43 3e b3 d5 2d 3d
       0.09440478 0.12733662 0.1909226 0.042440128
000050 d1 e4 33 3e 27 a6 28 bd 02 33 af 3d 6f f8 8c 3c
       0.17567755 -0.04117408 0.08554651 0.017208306
000060 80 a4 20 3e 60 b0 44 3d 57 49 13 3d d7 10 a6 3c
       0.15687752 0.048019767 0.035958614 0.020271702
000070 08 06 52 3b 82 27 4f 3e 2f 09 f1 3d 55 11 8d bb
       0.0032047052 0.20229915 0.1176933 -0.0043050447
000080 67 f3 62 3e c6 a2 f3 3c 2a 06 41 3d 53 2a 21 3e
       0.22163163 0.029740702 0.04712502 0.15738802
000090 a8 3c 03 3e a1 e5 c4 3d 38 f1 00 3e 1f e0 fa 3c
       0.12816107 0.09614111 0.12592018 0.030624447
0000a0 39 cf 56 3d b0 fb df 3d 10 35 a6 3d fd 77 23 3e
       0.052443717 0.109366775 0.081155896 0.1596374
0000b0 f0 a1 f6 3d f1 45 9a 3d 2a 11 f3 3d 66 0f 71 3e
       0.12042606 0.075328715 0.11868508 0.2354103
0000c0 96 e7 2a 3d 7a 1c 92 3e cc af 68 3e 7e b7 a4 3d
       0.041724764 0.2853735 0.22723311 0.08042811
0000d0 4a c2 7c 3e d1 44 37 3e fd ea e5 3d 8f fa 3e 3e
       0.2468349 0.17897345 0.11226461 0.18650268
0000e0 92 9c b2 3d f5 cf 92 3e f5 2c 0d 3e 51 44 3b 3e
       0.0872127 0.28674284 0.13786681 0.1828778
0000f0 f9 74 72 3d 53 58 23 3e e0 16 64 3d 9f f6 f2 3d
       0.059193585 0.15951662 0.055685878 0.118634455
000100 bd 1f 81 3c 0d 16 71 bc ae 66 19 3e 41 6e 7a bd
       0.015762204 -0.01471473 0.14980575 -0.061140303
000110 16 a8 31 3d 18 bd f0 bc e2 ab 07 3e b5 1e 88 3b
       0.04337319 -0.029387042 0.13249162 0.004154051
000120 35 ce 4b 3d c9 22 d5 3d 8a ed de bc 89 de 07 3e
       0.0497572 0.10407025 -0.027212877 0.13268484
000130 2d 19 b2 3c be 4a 03 3d 88 8c ee bd 1a c0 fa bd
       0.02174052 0.0320537 -0.11647898 -0.12243672
000140 ef bb b0 bd 2b 5f db bd 17 14 06 be 66 bc c9 bd
       -0.086295955 -0.10711511 -0.13093601 -0.09850387
000150 90 01 47 3d 0b 92 47 bd 36 d9 07 bd d6 ce d9 3c
       0.048585474 -0.04872326 -0.033166133 0.026587885
000160 af 15 42 bd 44 b2 1a bd 2d 19 48 3d e0 e5 08 be
       -0.04738396 -0.037767664 0.048852134 -0.1336894
000170 6e 88 73 bd 02 86 1f be 8c 5c 7a 3c db c1 00 be
       -0.05945628 -0.15578464 0.015280854 -0.1257395
000180 bb cf eb 3c db 49 3a bc 95 e8 74 3d 8a 99 c6 3c
       0.028785577 -0.011370148 0.05979212 0.024243135
000190 1e 2c 17 bd 2f 24 01 bc d9 60 68 bd cc d6 9a bd
       -0.036907308 -0.007882162 -0.056732986 -0.075605005
0001a0 61 e0 59 3d 3e 6f f6 3d f8 81 c1 bd ab fd 45 bc
       0.0531925 0.120329365 -0.09448618 -0.012084405
0001b0 a4 c1 e5 bd 99 0e 22 3d 14 71 bd 3c 8d c5 8a bc
       -0.11218575 0.039564703 0.023125209 -0.016939903
0001c0 d5 22 a0 bc 72 d4 e5 3d a8 cb de 3d aa 20 58 3e
       -0.01954786 0.11222161 0.10878688 0.2110621
0001d0 ee 53 0f 3e 04 f8 c5 3d 60 b0 23 3e f4 b2 ff bc
       0.1399686 0.09666446 0.1598525 -0.031213261
0001e0 62 ed 3c 3d 5f 95 83 39 3e e3 05 3d 47 e5 0b bd
       0.046124823 0.00025097557 0.03268742 -0.034154203
0001f0 ae 5b 73 bc 99 29 5f 3c 7d d4 d2 bd 4e a5 44 bd
       -0.014853401 0.0136207575 -0.10294435 -0.04800921
000200 56 84 2c 3b cc 90 ec bd f2 91 29 3e 5a de 80 3d
       0.0026323996 -0.11551055 0.1655958 0.0629241
000210 fb b2 8e 3d c8 31 9e 3d d6 74 45 3e ef 93 69 bd
       0.069677316 0.07724339 0.1928285 -0.057025846
000220 98 e3 09 3e 2f f9 04 3e a5 70 71 bd d5 ce 79 3d
       0.13465726 0.12985681 -0.058945317 0.060988266
000230 2b c8 bc 3d c9 8c 1c 3e a7 62 4d 3d 4d 99 ad 3d
       0.092178665 0.1528808 0.05014291 0.084765054
000240 ab c5 b5 3d 34 2b 14 3d 8c ea 80 3d 0b e2 37 bc
       0.08875593 0.036174014 0.06294736 -0.011223326
000250 4b 79 1d 3e 61 74 71 bd e7 ee ad 3d 87 39 ab 3b
       0.15378301 -0.05894888 0.08492833 0.0052253637
000260 aa ea 4b b9 cc ac 02 bc 27 48 89 bd 53 ed 1c 3e
       -0.00019447008 -0.007975768 -0.06703215 0.15324907
000270 20 14 6d 3e d7 b5 38 3e b2 2e 83 3e 2f cf f5 3d
       0.23152208 0.18038116 0.25621563 0.12002408
000280 8f c1 83 3d 9b 38 53 3e 0e 70 b5 3c 3c ef 2b 3d
       0.06433403 0.20627062 0.022148158 0.0419762
000290 84 5a 83 3d f4 16 ae 3c c5 22 ab 3d 86 86 0a 3e
       0.06413749 0.02125118 0.08356241 0.13527879
0002a0 9d 24 08 3e aa 4e 72 3d 7a 7d 94 bd a0 92 45 be
       0.13295217 0.05915705 -0.07250495 -0.19294214
0002b0 d7 6f 50 be 14 9d 04 be 21 d4 84 bc 29 23 76 3d
       -0.20355164 -0.12950546 -0.016214432 0.060092125
0002c0 07 3a e0 bd 8e 89 c5 3d cd 91 db bd ec 4a 6a bd
       -0.10948568 0.09645377 -0.10721169 -0.057200357
0002d0 d7 60 00 3d a7 c4 76 bd dd 00 1d 3e 68 34 99 3d
       0.031342354 -0.060246136 0.1533236 0.07480699
0002e0 50 91 5f bc 95 13 77 bd aa cf e9 3d 59 1e 73 3d
       -0.013645485 -0.06032141 0.11416562 0.059355114
0002f0 44 0c c3 bd 97 00 15 3e 25 2d 18 bc b5 d9 1c 3e
       -0.09523824 0.14551006 -0.009288107 0.15317424
000300 e7 50 02 3c 1b e6 03 3e dd 5c 17 3e 48 46 47 bd
       0.007953859 0.12880747 0.14781518 -0.04865101
000310 08 ad a5 3c 90 95 ce bc be 4b 20 3e 26 aa 05 3e
       0.02022411 -0.025217801 0.15653893 0.13053188
000320 ef 8c 70 bb c6 38 23 3e bd 97 a2 3b 70 c2 11 3e
       -0.0036705097 0.15939626 0.0049619363 0.14234328
000330 65 71 db 3d 2e 33 f7 3d 61 a8 5a 3d c0 47 94 3d
       0.10714988 0.120703086 0.053383235 0.07240248
000340 fe 24 76 3c 5d db 2c 3e 24 bf fd 3c e3 f0 bb 3b
       0.015023468 0.16880555 0.030974932 0.005735503
000350 b1 ed 25 3e 2d 94 2d 3e 28 02 08 3b 00 66 57 3d
       0.16203953 0.16951056 0.0020753238 0.05258751
000360 d8 1c 07 be e8 62 d1 bd 5b 58 b6 3d 6f 8e c0 3d
       -0.13194597 -0.10223943 0.08903571 0.09402167
000370 8d fa a2 3c 69 02 e6 3c 36 5f 93 bd 0a 72 0c be
       0.019894863 0.028077321 -0.071958944 -0.13715377
000380 15 d1 25 3d 65 5c 90 3c f3 17 88 3d db 50 b1 bd
       0.0404826 0.017622182 0.06645193 -0.08658
000390 36 1f 37 3d 14 ab 35 be d5 c2 2b bd 16 37 e7 bb
       0.0447075 -0.17741042 -0.041933853 -0.0070561273
0003a0 d3 bf db 3a c1 d7 a6 bc 1b d4 37 be 0a 65 02 3d
       0.0016765542 -0.020366551 -0.17952006 0.03183464
0003b0 13 36 3a bd 27 bc 1c bc 95 5d 25 3d 05 67 c2 3d
       -0.045461725 -0.009566343 0.04037245 0.09492306
0003c0 d6 3c e8 bc 64 f0 67 bd 2d d6 46 bd 6e 0f 89 bd
       -0.028349321 -0.05662574 -0.048544098 -0.06692396
0003d0 16 b9 41 be 20 1d 74 be a1 8e 0e be 2a aa ce bd
       -0.18918261 -0.23839235 -0.13921596 -0.1009105
0003e0 f3 83 29 bc 49 b8 f4 bd 39 41 11 be 5f e3 77 3b
       -0.010346401 -0.11949212 -0.14185037 0.0037824733
0003f0 a4 a4 4f be 68 09 49 be 80 33 48 bd 13 c2 3e 3d
       -0.20277649 -0.19632494 -0.04887724 0.046571802

lstm.weight_hh_l0 f4 [256, 64]
000000 84 af 86 bd 6c e6 c7 bc 0c bf 2c 3e 34 e7 4c 3c
       -0.06576446 -0.024401866 0.16869754 0.012506295
000010 8a 18 58 be 6f 90 dd bc a9 22 80 3d d9 b1 1f 3e
       -0.21103111 -0.02704641 0.06256611 0.15595187
000020 c0 e5 0a 3e 1e 94 d2 bd 07 43 e0 bd 39 28 1c 3d
       0.13564205 -0.10282157 -0.109502845 0.038124297
000030 9f b9 11 3d 30 07 86 bd 93 ad f5 3d 43 4a 19 3e
       0.035577413 -0.0654434 0.11995997 0.14969735
000040 4a 34 f4 bb e4 c0 85 bd f9 34 2c 3d 5b fc ca 3d
       -0.0074525224 -0.065309316 0.042042706 0.09911414
000050 80 e5 86 bd 67 a7 5a be 26 4c ad bd 1f cf 0c 3a
       -0.065867424 -0.21352921 -0.0846179 0.00053714396
000060 bf c8 a0 bd 3e 90 f7 bd 90 dd d2 bd 70 5e 30 3e
       -0.07850789 -0.12088059 -0.10296166 0.17223525
000070 46 ca aa 3d c5 98 16 be 58 70 a1 3d 9a df 2f be
       0.08339362 -0.14706714 0.07882756 -0.17175141
000080 b1 b2 03 3d 6f 74 76 bc 8d 48 10 3e 6a 7b 40 bd
       0.032152835 -0.015042408 0.14090176 -0.046992697
000090 3d 8d dc bd 0b f2 57 bc 73 15 6b bc c7 81 5f 3e
       -0.107691266 -0.013180266 -0.014348376 0.2182685
0000a0 a4 18 5a be fb 13 bf bc 72 e6 81 3d 5e 4e 26 3b
       -0.21298462 -0.023324957 0.06342782 0.00253763
0000b0 00 3b 12 3e d8 3a 5f 3b 97 58 92 3d 49 e6 11 3e
       0.14280319 0.0034062173 0.071458034 0.14248003
0000c0 42 8b 50 3d 59 37 9c 3b e4 39 da bd d1 da 46 be
       0.050914057 0.00476734 -0.10655573 -0.1941941
0000d0 e6 5d 08 be 5c 40 28 3d 19 ca 51 3d 57 4c 02 be
       -0.1331707 0.041077003 0.051218126 -0.12724434
0000e0 c3 07 a5 3c 86 0d 04 be 11 15 80 3d e6 05 2d 3d
       0.020145303 -0.12895784 0.06254018 0.042241953
0000f0 78 e8 55 3e 09 c2 bc 3d 7e 35 88 3d 3f 1f d2 3d
       0.20889461 0.09216697 0.06650828 0.10259866
000100 68 a0 e0 3d 14 91 4c be 4a 53 5e 3e ac 7b 9e 3e
       0.10968095 -0.19977218 0.2171146 0.3095373
000110 77 d2 d6 be cb 4e c3 bc 60 16 c2 3d 24 af bc 3d
       -0.41957447 -0.023841282 0.09476924 0.09213093
000120 99 fd ee bc 4e 5e da bd ae 55 11 be 36 b4 c7 bc
       -0.02917366 -0.106625184 -0.1419284 -0.024377923
000130 a4 b3 dc bd 0a c0 58 be 0b 32 a0 3b d6 85 5a bd
       -0.10776451 -0.21167007 0.004888778 -0.053350292
000140 71 06 30 3e af 2e 8c be ee 79 c1 bd a9 97 83 bd
       0.17189957 -0.27379367 -0.09447084 -0.06425411
000150 8c 70 84 3e aa 6f d4 bb c7 4d c1 bd 8b 55 da 3d
       0.25867116 -0.006483038 -0.09438663 0.10660847
000160 91 2a 24 be 80 ab 2a 3e 27 a3 4a be e4 6c f9 bc
       -0.16031863 0.16666985 -0.197888 -0.03044743
000170 be e0 a7 bd 7e d8 3b be 7e 29 7e 3d 71 5f 30 be
       -0.08197163 -0.18344304 0.06205129 -0.17223908
000180 7c a7 0f 3e e2 a3 3d be 32 30 62 3e 92 29 bc be
       0.14028734 -0.18519548 0.22088698 -0.36750466
000190 dd 06 42 3e 91 1d 2c bd cb 4f f5 bd 30 ca f7 3d
       0.1894793 -0.042020384 -0.1197811 0.12099111
0001a0 3e ab 0d be 1b de fb bb ff 36 29 3e 9a 5e 8b bd
       -0.13834855 -0.007686389 0.16524886 -0.06805153
0001b0 87 19 ad bd 7f 6c 5f be dd cc 58 3e b2 85 13 3d
       -0.084521346 -0.21818732 0.21171899 0.036016174
0001c0 ed ea 94 be 85 72 db 3d 2e 8f be 3d f0 6a 83 bd
       -0.29085484 0.10715202 0.09304653 -0.06416881
0001d0 66 22 31 3c 10 2a ec 3c 68 26 09 be 6c b2 8d bd
       0.010811424 0.02882865 -0.13393557 -0.06918797
0001e0 24 c6 b0 bd 1f 0b 42 be e4 6e d7 bc a2 58 7f 3e
       -0.08631542 -0.18949555 -0.026297994 0.24936154
0001f0 d6 6b 36 3e b7 cf b2 bd b3 65 b6 3d 3c 4b 83 bb
       0.17814574 -0.08731025 0.08906116 -0.0040067714
000200 58 54 bc 3b 3b 3d fd 3d d7 1f c9 bc b3 2d 7b bd
       0.0057473592 0.123651944 -0.024551315 -0.06132288
000210 36 f6 aa 3d 65 ae d1 bd c3 e1 a9 bd eb cf b0 bc
       0.08347742 -0.10238341 -0.08295014 -0.021583518
000220 8b d1 1b 3c 6d b6 97 3e d4 5e 14 be b1 a0 01 be
       0.009510408 0.29631367 -0.14489299 -0.12658955
000230 04 c8 14 3e c4 84 61 bd de 1d 90 bd f0 bc 05 3c
       0.14529425 -0.055058256 -0.07036947 0.008162722
000240 e4 15 ac bc fd 4e 00 be c8 ed 1e be db 82 12 3d
       -0.021006532 -0.12530132 -0.15520394 0.035769325
000250 a5 20 19 be fa 40 00 3e 80 f9 54 be 85 5d 45 3d
       -0.14953859 0.12524787 -0.20798302 0.04818489
000260 e8 5a b6 3d 93 97 4b 3e 67 df 06 bd 0d 41 80 3e
       0.08904058 0.1988204 -0.032927897 0.2504963
000270 7b 77 3d 3d 33 91 6c be e4 2d 98 3d 7c b4 f0 3c
       0.046256524 -0.23102264 0.07430628 0.029382937
000280 22 c5 0d be f0 51 1d 3e 08 56 8c 3d 6b 0b 53 bc
       -0.13844731 0.15363288 0.06852347 -0.01288114
000290 63 75 2f 3b af 03 e1 3d cc 5f 56 be 7a ba 47 3e
       0.0026772849 0.10987031 -0.20934981 0.19504729
0002a0 3e 4c b7 bd 4c 72 2f bd 12 da 43 3b 9a 61 48 bd
       -0.08950089 -0.04283361 0.0029884619 -0.048921205
0002b0 e8 85 9b 3c bb 28 06 be 82 82 cc bd 08 e5 84 3d
       0.01898475 -0.13101475 -0.0998583 0.06488997
0002c0 38 74 c0 bd 05 4f 30 3e 20 c5 af 3d 84 b7 57 bd
       -0.09397167 0.17217644 0.085825205 -0.05266525
0002d0 28 0f 92 bd 6e f2 67 be 55 33 5c bd 4c 90 75 3d
       -0.07131797 -0.22651073 -0.05375989 0.059952065
0002e0 ea 49 49 3d f7 03 34 be ba a6 b1 3d d2 ff 11 bd
       0.049142756 -0.17579637 0.08674379 -0.03564436
0002f0 31 2e 97 bd 79 5f 4b 3e 2e d7 59 3d 9c 3e db bb
       -0.07381857 0.19860639 0.053183727 -0.006690813
000300 0e d8 a9 3e e9 25 77 3e 0e 86 36 3e c3 4a 71 be
       0.3317265 0.24135555 0.17824575 -0.23563676
000310 6f 1b b7 bc be ec 33 be 95 8c 60 bd 6a 9b 40 3e
       -0.022351949 -0.17570779 -0.05482157 0.18809286
000320 cf f0 d4 bc 79 85 d8 3d b1 4c 39 bd eb e1 cf bc
       -0.025993733 0.10572333 -0.045239154 -0.02537628
000330 ad 2b 4b 3e b9 7e c5 3d 20 b1 58 3e 8f 39 46 3e
       0.1984088 0.09643311 0.21161318 0.19357894
000340 40 f9 62 3e fc a5 df 3e 80 63 34 3e 41 69 2b be
       0.22165394 0.43681324 0.17616081 -0.1673937
000350 c6 7e 22 be 3c ba a7 3e 34 c1 59 3c 84 a8 42 be
       -0.15868673 0.32759273 0.013290692 -0.19009596
000360 d7 75 35 be 31 53 2b 3e 08 60 90 be 9f 77 6e 3c
       -0.17720734 0.16730954 -0.28198266 0.014554887
000370 d5 07 a9 3e 6f a9 4a be 69 6b ce bd cd 4a d3 be
       0.33013788 -0.19791196 -0.100790806 -0.41268006
000380 87 f7 36 3e d3 c3 cd 3d d3 80 4a 3e f0 82 e9 bb
       0.17867862 0.10047116 0.19775705 -0.0071262047
000390 97 8a 7c bd 23 6d 96 3d 15 c1 cb be e7 18 5a 3d
       -0.061655607 0.07345035 -0.39795747 0.053246405
0003a0 20 25 d8 be be 98 b7 3d cb 79 3c 3e b8 17 3e 3e
       -0.42215824 0.0896468 0.18405835 0.18563735
0003b0 af 82 9a be e0 bb 10 3e 7e 84 0e 3e 2f a5 59 3e
       -0.3017783 0.14134169 0.1391773 0.21254419
0003c0 8a 5c 8f bd 05 5b 5c 3e e0 f2 a5 be 33 78 61 be
       -0.07000072 0.21519096 -0.3241186 -0.22018509
0003d0 38 35 27 3e 55 b2 0b 3e 48 25 2a 3c 35 94 da bd
       0.16328895 0.13642247 0.010384865 -0.106727995
0003e0 84 ed 27 be 3f 89 24 bd eb 2b cb bc 7a 80 94 3d
       -0.16399199 -0.04016995 -0.024801215 0.072510675
0003f0 53 ed 4e 3e 5b 8e 86 bc 7e 5a 8c bd 50 31 c3 3e
       0.2020772 -0.016425302 -0.068531975 0.3812356

lstm.bias_ih_l0 f4 [256]
000000 70 af 5d 3e 2e c6 13 3e a1 e1 da 3d 36 cf 54 3e
       0.21648955 0.14431068 0.106875665 0.2078217
000010 de fb 69 3e e5 bc 6a 3c 45 94 b6 3d d6 17 05 3d
       0.22849986 0.0143272625 0.08914999 0.032493435
000020 58 97 0e 3e 8c c5 28 3e f8 88 6b 3e 42 20 fc 3d
       0.1392492 0.16481608 0.23001468 0.1231084
000030 ce 6a 40 3d 4e 8c c5 3d cb 18 a8 3d bc 0f 0f 3e
       0.046976857 0.096459016 0.08207854 0.13970846
000040 70 2e 3a 3e 98 2b 19 3e 1f e2 ef 3d 3e d9 88 3e
       0.18181777 0.14958036 0.11713051 0.26728243
000050 26 97 a2 3d 92 f8 e0 3d 76 80 61 3e ca c7 84 3e
       0.079389855 0.10984911 0.2202166 0.25933677
000060 f6 62 36 3e 72 f3 6e 3d c4 a9 40 3e 47 b3 de 3d
       0.17811188 0.058337636 0.1881476 0.10874038
000070 52 7f 3c 3e 25 60 64 3e 14 eb 83 3e ec ba 41 3e
       0.18407944 0.22302301 0.25765288 0.18918961
000080 52 05 8b 3e 36 af aa 3c bd c3 ec 3d d8 41 0e 3e
       0.27152497 0.0208355 0.115607716 0.13892305
000090 13 59 a8 3d 05 72 23 3e d6 22 54 3d e8 02 65 3e
       0.082201146 0.15961464 0.051791035 0.2236439
0000a0 86 57 a4 3e 01 a9 e7 3d 2b 37 34 3e f4 cf 59 3e
       0.32098025 0.11311532 0.1759917 0.21270734
0000b0 f9 d9 5f 3d 86 e9 db 3d e0 1e 10 bb 65 8f d7 3e
       0.054651234 0.107379004 -0.002199106 0.4210159
0000c0 24 e1 b9 3d 6f 1b 08 3e 24 74 d7 3d 99 9e 42 3e
       0.09076145 0.13291715 0.10520199 0.19005813
0000d0 6a 2e 93 3e dc 0a 62 3d e8 23 a7 bb a8 7b f1 bc
       0.2874635 0.055186138 -0.005100716 -0.02947791
0000e0 2e c7 3e bb a8 5a f9 3d 2e 14 01 3e 15 ff 5a bd
       -0.002911042 0.121754944 0.12605354 -0.05346592
0000f0 f8 1e d1 3d 83 83 f9 3c 53 ed 9b 3d 03 16 71 bd
       0.10210985 0.030458217 0.076136254 -0.058858883
000100 27 dc 59 3d 04 fe ea 3d d8 2a d2 3d d2 94 85 3d
       0.05318847 0.11474231 0.10262078 0.06522526
000110 ad f6 1c 3d a6 0c 41 ba 52 03 8c 3d b8 28 26 3e
       0.038321186 -0.00073642505 0.06836571 0.1622647
000120 c6 dc c8 3d 8b 46 51 bd ca ed 62 3e 1d 9b 38 bd
       0.09807734 -0.051092666 0.22161022 -0.045069803
000130 69 cb 1f 3e 4d b2 9a bd 0b 0a 8f bd 5a 35 d1 3d
       0.15604939 -0.075535394 -0.069843374 0.10215254
000140 ce c5 f6 3d c9 de 4e 3d 4b 1a a9 3d 00 3a 43 3d
       0.12049447 0.050505433 0.08256968 0.047662735
000150 b9 a6 78 3e 79 b8 8a 3d f0 0b 06 be 3c d4 be bd
       0.2428235 0.067734666 -0.13090491 -0.09317824
000160 72 7e 4b 3d f2 7f a6 3d d5 55 b2 bd e3 40 71 3e
       0.049681135 0.081298724 -0.087077774 0.23559909
000170 b7 a6 40 bd e5 96 77 3d 5d b1 e4 bc 17 c3 24 3e
       -0.04703399 0.06044664 -0.027916605 0.16090046
000180 0d 61 04 3d 53 8d 3e bd f9 f0 e1 3d e5 75 3e 3e
       0.032319117 -0.046521496 0.1103229 0.1859966
000190 4b e9 86 bc 17 87 0f 3e 76 32 2f 3d 4c e0 2b 3d
       -0.016468665 0.14016376 0.042772733 0.041961953
0001a0 c6 f0 82 3e be 97 80 3d 1e 69 64 3d 8d 7b 22 bc
       0.2557432 0.062789425 0.05576431 -0.009917152
0001b0 ff 02 0a 3e ae b7 1b 3d f3 e6 f0 bc b1 04 cf bd
       0.13477705 0.038016967 -0.029407 -0.10108317
0001c0 7f 79 8d 3d bd ae 37 bc 61 63 84 3d 5a f3 86 3d
       0.06907939 -0.011211094 0.064642675 0.065893844
0001d0 2c fa cf bc 3d 43 b5 3c 94 2b 24 3d b2 b2 46 bd
       -0.025387846 0.022126788 0.04008062 -0.04851026
0001e0 69 e9 be bc c6 f6 aa bc b3 57 62 bd d3 19 fb bd
       -0.023304658 -0.020869624 -0.055259418 -0.12260785
0001f0 f4 77 81 bd 71 55 45 bd 29 e8 c9 3c 56 2b 60 3e
       -0.06321707 -0.048177186 0.024646835 0.21891531
000200 2d d8 44 3d b7 32 7b 3c e5 67 e8 bc f5 82 c1 3d
       0.048057724 0.015331916 -0.028369853 0.09448806
000210 cf 4c 75 3d a8 09 6b 3d 6c 70 38 bd f6 71 79 bd
       0.059887704 0.057382256 -0.04502909 -0.060899697
000220 6e 7e 45 3c e7 c6 9e 3d 4d 22 64 3d e0 1a 49 3d
       0.012054069 0.07752781 0.055696774 0.049097896
000230 bc be 45 bd c1 a8 81 bd 76 ac 32 be b5 a3 5e bd
       -0.0482776 -0.063310154 -0.17448601 -0.054355342
000240 30 81 66 bd 73 17 1c be df a4 31 3e 24 3a cb 3d
       -0.056275547 -0.1524332 0.1734805 0.09923199
000250 d3 05 94 bd a3 89 81 3d cd 8b 58 3d d9 2f 6f 3e
       -0.072276734 0.0632508 0.0528677 0.23358096
000260 d4 f9 2f 3e 14 22 80 3d 1a c6 1a 3e cf 89 d9 3d
       0.17185146 0.062565 0.15114632 0.10621988
000270 6c 9e c7 bd e2 e1 6b bd 6d 96 c4 bb 0e 67 98 3d
       -0.097470134 -0.057588466 -0.0059993775 0.07441531
000280 ae 5e 94 bd f7 53 8e bc ff ee 1a 3d 51 58 59 bd
       -0.07244621 -0.017374022 0.03782558 -0.05306274
000290 0d 7f bb 3d 37 3b 2e be 7a f0 3d bd 11 ed 6e bd
       0.091550924 -0.17014776 -0.046371914 -0.058331553
0002a0 96 9b 1e bb 17 be 6c 3d a8 05 a9 3d db 43 2f be
       -0.0024201623 0.05779847 0.08253032 -0.17115729
0002b0 93 ec 8b bd 3f bf 04 be 95 74 f8 3d bf 92 28 be
       -0.06832232 -0.1296358 0.12131611 -0.16462229
0002c0 e5 d3 41 bd 21 36 50 3d e0 c3 76 bb 37 aa 91 3d
       -0.04732122 0.05083287 -0.0037653372 0.07112544
0002d0 fb 0e 64 3e fd 4b 8a 3a b0 ab 16 bd 51 99 c9 3d
       0.2227134 0.0010551211 -0.036784828 0.09843696
0002e0 45 51 7e 3d 5c ac 01 3d 7a fc 93 3d a8 61 93 bd
       0.062089223 0.031658515 0.072258905 -0.07196361
0002f0 dd 74 07 be ed bf 93 bd 91 17 c3 3c 88 f7 e3 3c
       -0.13228174 -0.07214341 0.023814948 0.027827993
000300 c6 08 1b 3d e3 68 d7 bd c0 8e a6 3d e6 24 68 3e
       0.037850164 -0.105180524 0.08132696 0.22670326
000310 7c 5d 33 3c 46 50 fa 3c 96 47 0f 3e c9 82 a2 3d
       0.010947581 0.030555855 0.13992152 0.079351015
000320 e3 0a 04 bd 0a ee 4a 3d cf d2 d7 3d 70 62 a1 bd
       -0.032236945 0.049543418 0.105382554 -0.078801036
000330 99 72 30 3e d7 18 b5 3d ce c9 21 3e 2c 14 38 bd
       0.17231216 0.088426284 0.15799639 -0.044941112
000340 8a 0d 20 3d 92 87 84 bd 59 75 8c 3e ba 4d 90 bc
       0.03907541 -0.064711705 0.2743328 -0.017615188
000350 1a b1 68 3e 11 70 0b 3e 04 86 0b 3e a7 6c b7 3e
       0.22723809 0.13616969 0.13625342 0.35825083
000360 12 fa 6d 3e c2 ed 71 be 3a ca d7 3d 4b d6 0f 3e
       0.23239926 -0.23625854 0.105366185 0.1404659
000370 0d 4d 66 3d 4e 72 c2 3b 8e ad 09 3e b2 0b fe 3c
       0.056225825 0.0059340363 0.13445112 0.031011436
000380 cd e5 35 3e 6c 23 ec 3c f1 3d 74 3d 2c 0c ad 3d
       0.17763443 0.028825484 0.059629384 0.08449587
000390 51 61 c0 3d 19 09 74 3e 68 5b 9d bc 31 93 61 3d
       0.09393562 0.23831595 -0.019208625 0.055072013
0003a0 e5 90 3f 3e 4a 99 17 3d 65 66 84 3e 4b 65 38 3e
       0.18707617 0.037011422 0.2585937 0.1800739
0003b0 01 28 d0 ba c1 eb fe 3c e7 f2 a5 3d b5 90 28 3e
       -0.0015881063 0.031118276 0.081029706 0.16461451
0003c0 fb ca cf 3d cc fd 4b 3e e1 94 32 3e 7d fb 9f 3e
       0.10146137 0.19921035 0.17439605 0.31246558
0003d0 d3 7e ad 3e 66 5b c0 3d 2b 7d e2 3d 32 a9 6c 3d
       0.33885822 0.09392433 0.1105903 0.057778545
0003e0 38 21 cf 3d 8b c9 6a 3e ab 44 6d 3d 4c 3a 1f bd
       0.10113758 0.22928445 0.057926815 -0.038873956
0003f0 dd 57 07 3e bb 87 b9 3d 9b 47 52 3e 60 ac a0 3d
       0.13217111 0.09059092 0.20535128 0.07845378

lstm.bias_hh_l0 f4 [256]
000000 31 3a 43 3e 73 b0 20 3e fa 04 06 3d 4f 33 ff 3d
       0.19065167 0.1569231 0.03271959 0.12460958
000010 0c c3 6e 3d 6d fb 58 3c 1d cf 1a 3e 1c af d1 bd
       0.05829148 0.013243538 0.1511807 -0.102384776
000020 a7 8c f9 3d 4a 88 01 3d c2 6e 1b 3d 9b d7 e1 bc
       0.121850304 0.031624116 0.037947424 -0.027568629
000030 92 fb 35 3d 8d 7e 94 3e 29 36 c9 3d ae 80 97 3b
       0.04442937 0.290028 0.09824783 0.004623494
000040 3a 8d 5d 3e 5c d3 d8 3d b1 35 65 3d 2d 82 27 3e
       0.21635905 0.105871886 0.055959407 0.16358252
000050 a3 43 f0 3d 43 26 4d 3e 10 03 92 3e cc 93 42 3e
       0.11731651 0.20034127 0.28517962 0.19001693
000060 17 e1 a6 3e eb 81 fd 3d e8 7f 63 3e 11 a8 5c 3c
       0.32593605 0.123782955 0.22216761 0.0134678045
000070 7f 80 60 3e cf ab 15 3e 52 bc 2f 3e a8 51 6a 3e
       0.21924017 0.14616321 0.17161682 0.22882712
000080 65 f1 b6 3d ea e0 22 3e df 25 7d 3d 47 06 ef 3d
       0.08932761 0.1590611 0.061803695 0.11671119
000090 15 c2 6c 3e 5a a6 3e 3e 32 86 37 3e 36 22 0d 3e
       0.23120911 0.18618146 0.17922285 0.13782582
0000a0 0a fe 8d 3e 3e 31 b3 3d e4 88 8b 3e dc 15 82 3e
       0.2773288 0.087496266 0.27252877 0.25407302
0000b0 d4 f4 1a 3e cc 26 ba 3d e7 49 d5 3d 81 cd f3 3e
       0.15132457 0.09089431 0.104144864 0.47617725
0000c0 59 00 e8 3d a2 22 31 3d 03 c4 2c bd 07 cf 3c 3e
       0.11328191 0.04324592 -0.04217912 0.1843835
0000d0 a3 b0 bd 3e 0c a9 c2 bd 0d 3b 04 bd 85 a0 a7 3d
       0.37048826 -0.095048994 -0.032282878 0.081849135
0000e0 cc 10 40 3e 85 21 f8 bc ac 29 ee 3d 45 5c 7c 3d
       0.18756407 -0.03028942 0.11629042 0.061611433
0000f0 72 f2 8a 3e 97 6a 3f 3e 33 b0 b3 3d 8f d2 21 3e
       0.27138096 0.18693005 0.08773842 0.15802978
000100 ce 7f 67 3e 0c 82 bc 3d 93 25 d3 bc c5 27 33 3e
       0.22607347 0.09204492 -0.025774753 0.1749564
000110 cd 4f 82 3b dc 3b 5f 3c e4 f6 a6 bc e7 0e 05 3e
       0.003976798 0.013625111 -0.020381398 0.12993966
000120 22 71 aa 3d 04 57 d4 3d a4 07 ed 3d a0 5a 26 3e
       0.083223596 0.103681594 0.11573723 0.16245508
000130 a5 ff 73 3e e9 fd 77 bd 91 d0 51 bd 55 00 88 3c
       0.2382799 -0.060544882 -0.051224295 0.01660172
000140 f2 a8 cb bd 1d e8 89 3c b5 5c 3c 3e 0d 2a 05 3e
       -0.09944333 0.016834313 0.1839474 0.13004322
000150 c5 d7 8c 3d de 3c 43 3e ff 6a b4 bd 52 43 89 3d
       0.06877092 0.19066188 -0.088094704 0.067022935
000160 f6 2e 82 3c 77 e7 13 3c 27 5e 01 bc 53 5c 0d 3e
       0.015891533 0.0090273535 -0.007895983 0.1380475
000170 59 01 b8 3d 31 41 87 3d 11 4e 05 3c 63 98 1d 3e
       0.08984632 0.06604231 0.008136288 0.15390162
000180 0f 05 d9 3d 4b ac 45 be d7 02 9d 3d ec 49 21 3e
       0.10596668 -0.19304006 0.07666557 0.15750855
000190 f7 0d 4e be e5 b3 b1 3e 9f a9 b2 3d e4 8e 9e 3d
       -0.20122515 0.3470756 0.08723759 0.07742098
0001a0 29 b1 9d 3d 8e 97 ca bd d2 b7 9a bd b6 19 85 bc
       0.07699806 -0.09892188 -0.07554592 -0.016247611
0001b0 a4 9c 51 bc 98 2f 01 bc 9b 00 2e 3e df d8 5d 3c
       -0.012793694 -0.007884882 0.16992418 0.013540476
0001c0 07 6b 7b 3d f8 6b 3a 3e 11 a3 84 3e 1d 1e e0 3a
       0.061381366 0.1820525 0.2590566 0.0017098818
0001d0 0a e9 22 3e 5d 50 2e 3e 72 ec 2d 3d 7f a3 16 3e
       0.1590921 0.17022844 0.04246182 0.14710806
0001e0 3b 1d 2c bd 49 2e 4f bd 2d c2 8c 3c aa f3 6f 3d
       -0.042020064 -0.05058125 0.017182434 0.058581986
0001f0 da e3 ef 3d f7 9d e0 bd 4c 54 02 bc e2 d9 50 3e
       0.11713381 -0.109676294 -0.007954668 0.20395616
000200 a5 ab bd bc 54 59 d2 bd e9 ba f0 bc e4 7d 21 3c
       -0.023153136 -0.10270944 -0.029386 0.009856675
000210 80 d0 f7 3d 38 83 b9 bc 72 08 8e 3c db 04 7b bb
       0.12100315 -0.022645578 0.017338011 -0.0038302455
000220 42 26 d4 3d 3e f8 de 3d f6 a6 61 3b 0c 80 25 3e
       0.103588596 0.10887192 0.0034431792 0.16162127
000230 1b d7 27 3d 3b ec 0b 3e f0 8e d2 bd 74 c8 e2 bc
       0.040976625 0.13664334 -0.102811694 -0.027683474
000240 44 8d cf bd e1 d1 a9 3c fb c6 44 3d 03 42 53 bd
       -0.10134366 0.02072996 0.048041325 -0.051576626
000250 e8 97 2f 3d a5 e4 e6 3c 11 c0 02 be 28 0a bb 3c
       0.04286948 0.028185198 -0.1276858 0.022831991
000260 4c 26 82 bb 97 16 53 bd c6 dd 29 3d fa 0a 6f 3e
       -0.0039718505 -0.051535215 0.041471265 0.23344031
000270 59 a3 51 bd 07 2b 4e bd a7 3a b5 3d 3a 37 6e 3e
       -0.05118117 -0.050334003 0.08849078 0.23263255
000280 5c 08 9f bb a2 fc 0d be bc 92 f3 bb 6c 1a 70 bd
       -0.0048532914 -0.13865903 -0.0074332636 -0.058618948
000290 72 45 c4 b9 a8 1e 19 bd 41 81 ab 3d 0c 4a 51 3d
       -0.00037435774 -0.03738275 0.083742626 0.051096007
0002a0 34 50 14 3c 94 52 05 3e 57 10 b2 bd 06 f0 2a be
       0.009052325 0.13019782 -0.08694523 -0.16693124
0002b0 11 40 a5 bd 49 a3 f9 bd 87 65 51 bd 45 95 4a be
       -0.0806886 -0.12189347 -0.051122215 -0.19783504
0002c0 67 a7 57 3c 0a 81 25 be ba 73 90 3d bc 28 22 3e
       0.01316247 -0.16162506 0.07053323 0.15835851
0002d0 f4 ce b2 3d ac 07 d9 bc e3 35 90 3d 67 65 d8 3d
       0.087308794 -0.026492916 0.07041528 0.10566216
0002e0 96 b2 88 3d e8 1e 6a 3b 02 33 37 bc 86 b5 ac 3d
       0.066746876 0.0035723988 -0.011181595 0.0843306
0002f0 e8 ae 03 be 61 46 1c 3b 6c d9 1c be 62 bc a6 3d
       -0.1285969 0.002384566 -0.15317315 0.081414
000300 cb 72 6a 3d 34 c9 ed bd 83 e0 9d bd 09 6f 6c 3e
       0.05723838 -0.11610642 -0.07708838 0.23089232
000310 39 25 15 3e 50 8d 7e 3d 62 b1 24 3e 2d fa 5e bd
       0.1456498 0.062146485 0.16083291 -0.054437805
000320 78 8b ea bc 0b 03 1b 3d a7 5b 56 3d 54 cb 81 3a
       -0.028630957 0.0378447 0.0523335 0.0009902515
000330 6c fb a8 3d 39 b6 51 3e 59 ea 94 3d 6a 3a 11 be
       0.0825108 0.20479669 0.07271261 -0.1418244
000340 35 f0 f8 bd 7e 32 d1 3d b0 41 53 3e 2f 7d a4 bc
       -0.12155191 0.10214709 0.20630527 -0.020079223
000350 18 e1 0b 3e 8d 5d 0c 3e cf bd 45 bd 28 54 9c 3e
       0.13660085 0.13707562 -0.04827672 0.30532956
000360 fc 9c 13 3d a7 39 c2 bd 0c bf 51 3d 6f 03 af 3d
       0.036038384 -0.094836526 0.051207587 0.08545577
000370 cf 26 f6 3c 51 22 c3 bd c2 cc 38 3e 74 66 50 3d
       0.030047802 -0.0952803 0.18046859 0.050878957
000380 a5 5c b7 3d 17 6c 0c be 72 2d a8 bd 34 59 6b bb
       0.089532174 -0.13713108 -0.08211793 -0.0035911324
000390 39 dc bc 3d d7 1a 40 3e 63 b3 2b 39 29 23 1d 3c
       0.09221692 0.18760239 0.00016374658 0.009590902
0003a0 6f ae 0f 3e 8d e7 c3 bc f6 e4 03 3e 2b b8 4f 3d
       0.14031385 -0.023914123 0.1288031 0.050712746
0003b0 d3 bc 02 3e ad a5 3c bd a2 00 12 be 7e cb 23 3e
       0.12767343 -0.04605644 -0.14258054 0.15995595
0003c0 35 c4 1d 3e 73 0e 3e 3e 37 70 ad 3d e8 2c 4f 3e
       0.15406878 0.185602 0.08468669 0.20231974
0003d0 77 af e5 3e 48 4e 8b 3b 59 c6 c9 bb 6d 5f f2 3d
       0.44860432 0.004251275 -0.006157678 0.11834607
0003e0 c5 09 2d bd 05 73 01 3e 21 7a 80 3e 16 25 ae 3d
       -0.042245645 0.12641533 0.25093177 0.08503167
0003f0 19 93 6f bd 26 4d 3b 3e fa 9b 2b 3e 58 f5 8c bd
       -0.058489893 0.18291149 0.16758719 -0.06882733

lstm.weight_ih_l1 f4 [256, 64]
000000 f2 e4 85 bd ae c1 b2 3d aa 6e 8d 3e 5e f4 04 3e
       -0.065378085 0.08728348 0.27623492 0.12983844
000010 3c 4a dd 3c e6 6e 38 3d 09 65 0c 3d 0e bf 1f 3e
       0.027012937 0.045027636 0.034276042 0.15600225
000020 70 96 8d bc e1 66 4e 3e 9d 30 f3 3d ce a8 03 bd
       -0.017283648 0.20156433 0.118745066 -0.032143407
000030 03 d4 4a 3e 15 1a 53 bc 5a 77 c0 3c 15 df 95 3d
       0.19807439 -0.012884636 0.023494411 0.0731794
000040 f9 cb b5 3c ff e3 c0 bd d4 f3 bd 3d 97 c8 82 3c
       0.022191988 -0.09418487 0.09275022 0.01596479
000050 9a 04 4f 3d 5f 4f 6e be 0e 3e 00 be ed a2 19 3d
       0.050541498 -0.23272465 -0.12523672 0.037508894
000060 cc c4 ce bd 05 6a b8 bd db a2 7c 3d 4d 4b 06 3e
       -0.1009613 -0.090045966 0.06167875 0.13114662
000070 6e c9 41 3d 5e 60 17 be 7e b9 db 3d 6b 9b 89 bd
       0.04731124 -0.14782855 0.10728739 -0.06719097
000080 d1 8a 98 be 0b 22 77 3d 52 e6 3c bd 4f 5e 4d 3e
       -0.2979341 0.0603352 -0.046118088 0.20055507
000090 09 bc 25 be 8f 50 c5 3c ac da d9 3d bc 2b b8 3d
       -0.16185011 0.024086265 0.106374115 0.08992717
0000a0 3b 66 36 3d e3 d2 ba b8 5a 47 de bd 09 17 70 be
       0.04453109 -8.908452e-05 -0.10853453 -0.23446287
0000b0 8a 8e cd bd 26 da 2c 3e 85 19 80 bd 3b a2 bf 3d
       -0.10036953 0.16880092 -0.062548675 0.09357115
0000c0 72 0e a8 bd 6e c2 14 3d 9f 1b 25 3d d4 2f 5e 3c
       -0.0820588 0.036318235 0.040309545 0.013561208
0000d0 a2 2a 12 3d f7 8e 9a 3d c8 c4 50 3d 35 d1 c5 bd
       0.03568519 0.075468 0.050968915 -0.09659044
0000e0 51 e9 da bc 7d ac 02 bd 42 13 ad bc 77 82 28 bc
       -0.026722582 -0.03190278 -0.021127347 -0.0102850115
0000f0 7e 01 0f bd 80 70 39 bc 04 ac a3 3b 42 28 0b 3e
       -0.034913532 -0.011318326 0.004994871 0.13589576
000100 b7 a4 0c 3e 0f ef f8 3c 22 e3 55 bc 99 ff 44 bd
       0.13734709 0.03038743 -0.013054641 -0.04809532
000110 ce 8b 1c 3e ce 47 cc bd 68 4d 3d 3e de 61 4d bd
       0.15287706 -0.09974633 0.1848656 -0.05014216
000120 81 10 a8 3d 42 c0 fb 3b d0 d0 5d bd 72 9b 07 3e
       0.08206273 0.007682831 -0.054154217 0.13242891
000130 21 d1 01 39 8d bd 93 3e 94 e8 97 bc b4 11 b7 3d
       0.00012380305 0.28855553 -0.01854352 0.089389235
000140 b4 1b 7f 3e a7 db 8c be 66 c8 85 3d 98 bb bf bc
       0.24912912 -0.2751133 0.065323636 -0.023404881
000150 ee 47 31 be fd 70 01 be 9c 3f 1d 3e d7 5a 96 3d
       -0.17312595 -0.12640758 0.15356296 0.07341545
000160 4f 5e 1f 3e 4b 28 9b 3e a5 df fe 3d f3 7c a1 3e
       0.1556332 0.3030418 0.124450006 0.3154064
000170 e6 34 8b bd 95 cc ba 3c 54 d9 b4 3d f4 9b 83 bd
       -0.06797199 0.02280263 0.088305146 -0.0642623
000180 19 0d b0 3d 08 d0 4d bc 0a 36 63 3e d0 05 df 3d
       0.08596248 -0.012561806 0.22188583 0.108897805
000190 57 e8 d1 bd 3e d3 48 bd 81 98 8b bd 4d 13 f6 3c
       -0.102493934 -0.04902958 -0.06816197 0.0300385
0001a0 c7 7e c4 bd 72 fd ad 3d f2 0a 6e be 24 c7 19 be
       -0.09594493 0.084956065 -0.23246363 -0.15017372
0001b0 c0 a1 8f be db 97 93 be c6 5f 4c bd 99 a5 0f be
       -0.28053093 -0.28826794 -0.049896024 -0.14028014
0001c0 f8 a9 59 3e 64 a9 5a be db 71 61 be ef f9 bd 3d
       0.21256244 -0.2135368 -0.22016089 0.09276187
0001d0 b6 50 59 3d 64 75 97 bd 72 1e f7 bd 0c df a8 bd
       0.053055488 -0.07395437 -0.12066354 -0.08245668
0001e0 9e 50 50 3e 43 b0 37 bc e6 84 bb bd ab 5b b9 3d
       0.20343253 -0.011211458 -0.09156208 0.090506874
0001f0 17 43 36 3c fe 98 25 be b1 cb 48 be 8b 52 48 bd
       0.011124394 -0.16171643 -0.19608952 -0.048906844
000200 67 7c 73 ba 93 49 80 3d 11 7a 42 3e 38 e8 43 bd
       -0.0009288252 0.06264033 0.18991877 -0.047828883
000210 27 6c 05 3c f0 c5 18 3e ce a6 5e 3d 04 31 0e be
       0.008143461 0.14919257 0.054358296 -0.13885885
000220 bb 34 03 3c 3b f8 8c bd 88 cc 03 3d 08 21 28 bd
       0.008008177 -0.06883284 0.032177478 -0.041047126
000230 f1 b2 1b 3e 45 06 3c 3e 90 21 57 bc 58 7b 2d bd
       0.1520498 0.18361767 -0.0131305605 -0.042353958
000240 ad 23 2c 3e 24 b7 4d be c3 65 10 3e a8 fe a7 bd
       0.16810484 -0.20089394 0.14101319 -0.08202869
000250 84 77 6e 3e ec 7c 97 3d 42 c2 14 3e a1 6f 9e 3c
       0.23287779 0.07396874 0.14527228 0.019340338
000260 9f 01 6f bd 4a 87 41 3e 46 35 9d bd ed 2e 11 3e
       -0.058351155 0.18899265 -0.07676177 0.14178057
000270 f9 29 db 3d 44 8e 04 be 97 92 b7 3d 1e ce 04 3b
       0.10701365 -0.12944895 0.08963507 0.0020264457
000280 76 b8 72 bd 02 c9 1c be 17 99 12 bc 8d 55 0b be
       -0.059257947 -0.15311053 -0.008947632 -0.13606854
000290 97 6e e0 3c db b1 8e bd bb 8d 0f be 4a 2e 7e 3e
       0.027396483 -0.06967517 -0.1401891 0.24822345
0002a0 ac c8 5b bd e8 61 a6 bd c2 b0 3b 3c c1 d0 e9 3c
       -0.053658172 -0.08124143 0.011455717 0.028541924
0002b0 33 b3 83 3e 02 c9 9d 3e 54 df 81 3e 13 67 e3 3d
       0.25722656 0.3081742 0.25365698 0.11103644
0002c0 e0 26 be 3d c9 26 04 3b 58 0f d0 be 8e 79 97 be
       0.092847586 0.002016472 -0.40636706 -0.29584926
0002d0 dd 70 0c 3e 9d 6c f5 bc 00 a6 97 bc 58 5e c9 bd
       0.13714929 -0.029959017 -0.018511772 -0.09832448
0002e0 7a 46 84 3d 7c c4 1f be 4c ec 33 be c0 87 ea 3d
       0.06458755 -0.15602297 -0.17570609 0.114516735
0002f0 42 05 cc 3d 21 fd a4 3d 3d 63 55 3e e5 17 10 3e
       0.0996194 0.08056093 0.20838638 0.14071615
000300 0f e0 54 bd c1 b9 55 bd 3f 33 d2 3d eb 90 84 bc
       -0.05197149 -0.0521791 0.10263681 -0.016182384
000310 07 54 09 be db 35 43 3e d4 26 1a bd 57 c9 95 be
       -0.1341096 0.19063513 -0.037634686 -0.29255173
000320 21 72 9b be ff 40 a8 bc df 77 39 3e 9d d0 37 3e
       -0.3036051 -0.020538805 0.18112133 0.17950673
000330 7a dd 41 3e f2 e1 58 3d ff b4 6c 3d 24 cf 52 3d
       0.18932143 0.052949853 0.0577898 0.051467076
000340 26 8b 6a 3e c9 f3 cc bd d1 37 24 3e 85 51 1e 3e
       0.22904643 -0.10007436 0.16036917 0.15460785
000350 02 67 08 3d 78 e8 d5 bd 42 c9 5b bd 1d 39 09 bd
       0.03330136 -0.104447305 -0.05365873 -0.033501733
000360 55 7a 5c 3d 56 63 42 3e 7f 4c ba bc f3 f2 89 3e
       0.053827602 0.18983206 -0.022741554 0.26943168
000370 e0 a2 45 3e 4f ff 25 be 8e 11 7c 3d 90 c8 98 be
       0.19300413 -0.16210674 0.06154018 -0.29840517
000380 e6 24 06 bb b7 3a a1 bd 1b d6 1d bc cf 53 35 3d
       -0.002046877 -0.07872527 -0.009633566 0.04426938
000390 2e 7d 37 3b 73 a5 cf 3b 12 ff 3c bd df b6 46 3e
       0.0027998197 0.0063368618 -0.04614169 0.19405697
0003a0 bd 52 93 3b cd 38 8a 3d e2 ac fe 3d 4a d6 0b 3e
       0.004495947 0.06749115 0.124353185 0.13655964
0003b0 99 c0 42 be 90 1e 9b 3c 6e 5f 44 3d b9 2e d3 bc
       -0.19018783 0.018935472 0.04794257 -0.025779115
0003c0 d9 fd 20 be 99 74 60 3c 97 ee 4e bd f7 cf e3 3c
       -0.15721835 0.013699674 -0.050520506 0.027809126
0003d0 60 eb 4e bd dc 31 c6 3d fb c1 06 3c c9 0c bd bd
       -0.05051744 0.09677479 0.0082249595 -0.09230954
0003e0 4e 22 1d bc 9e cf 3f be 2a dc 66 bc 68 9f 5d 3e
       -0.009590698 -0.18731543 -0.014090577 0.2164284
0003f0 6d f0 25 3e 5d 0e 84 3e 32 94 83 3d 3c f9 04 3e
       0.16204996 0.25792208 0.064247504 0.129857

lstm.weight_hh_l1 f4 [256, 64]
000000 b9 78 4c 3e a6 3e 95 bd eb ea f7 3c a1 c7 23 bd
       0.19967927 -0.0728734 0.030263385 -0.039985303
000010 37 b5 e1 bd fd 2e fa 3d f1 b5 14 bd 76 b1 0b be
       -0.11020892 0.122159936 -0.036306325 -0.13641915
000020 aa 28 82 3d 36 6a cd bd 82 3c 9c 3c 20 c3 47 3b
       0.06355412 -0.10030024 0.019071821 0.0030481294
000030 13 c0 e8 bd 02 93 0d 3e e2 04 4d bd 89 2c 6f bd
       -0.1136476 0.1382561 -0.050053485 -0.05839208
000040 89 c6 4e bd 50 20 2c 3e ca 2c 12 3d d8 d2 1a be
       -0.050482307 0.16809201 0.035687245 -0.15119493
000050 fe a0 01 3b b2 b1 43 bd 69 c7 5d 3d 4f 3a 40 3d
       0.0019779797 -0.047776885 0.05414525 0.046930607
000060 9c ed 11 bd fc 2f 41 bc c4 34 1e 3e 4d 77 c4 bc
       -0.035626993 -0.0117912255 0.15449816 -0.023982668
000070 42 8c 00 3d 2d 78 c2 bc c3 14 3d be 21 9d bd 3c
       0.03138376 -0.023738945 -0.18464951 0.023146214
000080 94 0e f1 3d 96 4d cb bc 94 78 27 bd 93 25 4a 3c
       0.11770359 -0.02481727 -0.040886477 0.01233806
000090 09 79 8d bd 5f 9c 77 bd 12 18 49 bd 74 e6 0c be
       -0.06907851 -0.06045186 -0.04909522 -0.13759786
0000a0 df 1d 48 3d 4f 53 b6 3c e7 48 a3 bd 24 0d 13 3d
       0.048856612 0.022256522 -0.079728894 0.035901204
0000b0 45 e7 30 3e 84 a6 9d bc 0c d9 dc bd 8a ff 79 bd
       0.17275722 -0.01924444 -0.10783586 -0.061034717
0000c0 2b 0e 91 3d 65 82 0c bd 9b c3 6b bd e6 4f 12 bd
       0.070827805 -0.03430404 -0.05755959 -0.03572073
0000d0 ce ac 1a 3c c6 db 27 be 12 2c 75 bd 6a 76 f5 bd
       0.009440614 -0.1639243 -0.05985648 -0.11985476
0000e0 52 96 f5 bd ce ad 9e 3c 42 1e cf bd b7 6b a5 bb
       -0.11991562 0.019369986 -0.10113193 -0.005048241
0000f0 ad 65 40 3b e0 de 3b be a6 22 dc bd 06 b8 6f 3d
       0.0029357478 -0.18346739 -0.10748796 0.058525108
000100 ab 92 bf bb 54 9e 42 bc 62 7e c6 bd 90 07 11 3d
       -0.0058463416 -0.011878569 -0.09692074 0.035407603
000110 20 45 e6 bd cf 0e c5 3b d4 53 95 3e 54 c1 3c 3e
       -0.11243653 0.006013728 0.29165518 0.18433124
000120 8e 93 c0 bd 26 3a 92 3d e9 b8 d0 bb e4 e6 76 3d
       -0.09403144 0.07139997 -0.0063696993 0.06027879
000130 1c 52 68 3e fa 15 bb 3c d2 d4 08 be 4b be 43 3c
       0.22687572 0.022837628 -0.13362435 0.011947225
000140 06 7b 6d 3d d6 4e 45 3e c9 ae c0 3d be a5 f7 3c
       0.057978652 0.19268355 0.094083376 0.0302304
000150 51 6d fd bd db 8b bc 3d d3 62 11 3e d4 ee a7 bd
       -0.12374366 0.09206363 0.14197855 -0.0819985
000160 1c 31 96 3b db 86 ac bb e1 99 22 3c 49 00 86 bc
       0.004583491 -0.0052650995 0.009924383 -0.016357558
000170 42 26 0a 3e 14 62 5e be c3 78 b4 bd d8 50 5a 3d
       0.13491157 -0.21717101 -0.08812096 0.053299755
000180 a9 96 b3 3b a8 8c b0 bd c5 85 cb 3d 75 8f 54 be
       0.0054806066 -0.08620578 0.09937624 -0.2075785
000190 06 68 42 be 2b 3a f1 3c 8f d1 7d 3d 9b 88 8b bd
       -0.18984994 0.029446682 0.06196743 -0.06813165
0001a0 8c 2c fd 3d 32 64 1e 3e b8 75 1e 3e d7 29 14 3e
       0.12362012 0.15467909 0.15474594 0.14469086
0001b0 b5 18 82 3e 2e ac 2d bd a9 34 9f bd a6 4f 84 bd
       0.25409475 -0.04240053 -0.07773716 -0.06460504
0001c0 a7 a2 6f 3e e3 eb 78 be 1d 76 f3 bd 44 5b a7 3d
       0.2340189 -0.24308734 -0.11887763 0.081717044
0001d0 dc 46 1d bd 66 81 48 3c e4 8e f6 3d 0c 3e 38 be
       -0.038397655 0.012237882 0.12038973 -0.17992419
0001e0 04 54 10 be 8d 62 bd 3d 5d 95 90 bd b4 e7 14 bd
       -0.1409455 0.09247313 -0.07059739 -0.03635378
0001f0 19 1d 83 3d 99 e6 90 3d 30 11 11 bd 52 c4 4b 3d
       0.06402034 0.07075233 -0.035416782 0.049747773
000200 33 4c 3f 3d 27 f0 8c 3d b5 e0 ff bd 46 6e 09 3e
       0.04670353 0.06881743 -0.12494031 0.13420972
000210 e4 2d 82 3b d1 6d a2 bd e6 8b 1e 3e 66 b6 3c 3e
       0.0039727557 -0.07931102 0.15483055 0.18428954
000220 f2 2f 20 3e d4 a1 39 3e dc 7a 29 3b 8c 1f bb bc
       0.1564329 0.18128139 0.0025860583 -0.022842191
000230 1e ad 5e 3e bd ba 0e bc 1e 92 a6 bd 80 70 2d be
       0.21745726 -0.008711514 -0.081333384 -0.16937447
000240 da 60 b9 bb 50 ed 86 3c ba 86 c9 3d 32 5f 80 be
       -0.0056572976 0.016470581 0.0984015 -0.25072628
000250 a4 22 47 bd dc 73 08 bd bd 5e 0a 3e da 6c 65 3e
       -0.04861702 -0.033313617 0.13512702 0.22404805
000260 a1 22 f8 3d 93 e2 04 3e b2 df 28 3e e3 8c 87 3d
       0.1211598 0.12977056 0.16491583 0.06618669
000270 e0 c8 e3 3d 1c 09 57 bd e4 1a e7 bd df d0 f2 bd
       0.11122298 -0.05249892 -0.11284426 -0.11856245
000280 96 c8 06 3e 58 df 5d bc 64 6d 6b 3c fa ba 09 be
       0.13162455 -0.013542019 0.0143693425 -0.13450232
000290 3d b4 60 bd 8c cd a3 bb 0d 09 0d 3e bb 1e 2d bd
       -0.05485939 -0.0049988683 0.13772984 -0.042265635
0002a0 80 74 ba 3d 0b 3f 06 bc 88 74 54 3e 78 56 67 bc
       0.09104252 -0.008193742 0.20747578 -0.014119737
0002b0 ed d0 8f 3d 8a 0d e9 3a a7 88 8f 3d ac d6 c3 3d
       0.07022271 0.0017780524 0.07008486 0.0956243
0002c0 06 5b 47 3e 20 d5 5f be ed 7a 9c 3c 64 f3 30 3e
       0.19468316 -0.21858644 0.019101584 0.17280346
0002d0 80 aa 96 3e 0a 6f d8 3d 75 c1 11 3d c7 52 25 bc
       0.29426956 0.10568054 0.035584886 -0.010090536
0002e0 aa d2 49 be 0c 54 96 3d a5 ed 90 be 35 71 5c 3c
       -0.19709268 0.073402494 -0.28306308 0.013454725
0002f0 59 00 17 3e d7 03 22 be 09 c0 0b bc 0c 76 ac 3c
       0.14746226 -0.15821777 -0.0085296715 0.021052383
000300 5b d0 86 3e 1f 7c 34 3c c7 c9 63 bd 08 50 5d be
       0.26330838 0.011015921 -0.05561235 -0.21612561
000310 ae f1 0c be e5 74 12 3e b1 13 00 3e 67 93 0b 3c
       -0.13764068 0.14302404 0.12507512 0.00851903
000320 7a d8 90 bd 4e e3 13 3e 3e 1a 3d 3d 79 3b bc 3d
       -0.0707254 0.14442179 0.046167605 0.09191031
000330 c8 cb ea 3c 04 9d df 3d 53 bc 0f 3e 80 b1 73 3c
       0.028661624 0.1091862 0.14036684 0.014873862
000340 02 cf bb bb a6 3a 7a 3d 88 51 53 3d 38 14 bb 3c
       -0.0057314644 0.061091088 0.051591426 0.02283679
000350 57 79 04 be 83 9e 08 be db 7d e1 bd c4 3a 2e 3e
       -0.12936912 -0.13341717 -0.11010333 0.17014605
000360 30 ef 8d 3d 25 2e c8 3d 5a 16 3a 3d 0a 6f ad bc
       0.06930387 0.09774426 0.045431472 -0.021171112
000370 ac 34 b1 bd 45 6a 2c be 37 5d e6 bd 6b 4d 8a bd
       -0.086526245 -0.16837414 -0.11248248 -0.067530476
000380 c7 2f 88 3d cf 9a 57 3d 3f 3c 93 3d 41 cb ac bd
       0.06649738 0.05263787 0.071892254 -0.08437205
000390 c6 28 b8 bd b4 eb 36 3d b2 90 1c be d9 85 fd bc
       -0.08992152 0.044658378 -0.15289572 -0.030947613
0003a0 b1 6e 22 3e 05 6a 23 be 5c f8 41 3d 2f 23 eb 3c
       0.15862538 -0.15958412 0.047355995 0.0287033
0003b0 b4 a2 eb 3d 5c 43 8a bd c4 2b 27 3e 18 c4 c7 3d
       0.115056425 -0.06751129 0.16325289 0.09754199
0003c0 26 48 30 3e c0 97 fd 3c c4 ff 1b be c9 7b 0c 3e
       0.17215022 0.03095615 -0.15234286 0.13719095
0003d0 94 82 82 bd e0 40 05 3e cc 5d 41 be c8 4b bb bd
       -0.06372562 0.13013029 -0.18883437 -0.091453135
0003e0 4b 41 f5 bc c3 50 6e bd 1b fe af bd 6a e7 86 3d
       -0.02993836 -0.05818249 -0.08593389 0.065871075
0003f0 7d 53 1b 3e 07 df cf 3d 94 ad 60 bd 9c 95 36 3d
       0.15168567 0.10149961 -0.054853037 0.044576272

lstm.bias_ih_l1 f4 [256]
000000 ef 5b 3f 3e 47 74 25 3e 95 9c e0 3d c2 af 11 3e
       0.18687414 0.16157638 0.10967366 0.14227203
000010 6f 38 c7 3d 73 4b 99 3d d8 a6 ae 3e 86 b2 50 3e
       0.09727561 0.07485094 0.34111667 0.20380601
000020 cf 7b 39 3d 49 4d 98 3e 15 9a 31 3d 20 30 64 bd
       0.04528409 0.29746464 0.043359835 -0.055709958
000030 9f 92 88 3e c5 0b b2 3c 43 b9 95 bc c8 8e 0c 3e
       0.26674363 0.021734128 -0.018276816 0.13726342
000040 c9 3d 81 3d 4d 3d 48 3e 66 ea 12 3e b6 0c 0f 3e
       0.06310613 0.19554634 0.14347228 0.13969693
000050 91 48 1d 3e a1 61 01 3e b7 80 07 3d 00 27 88 3b
       0.15359713 0.12634899 0.033081736 0.00415504
000060 9f 41 f8 3c 32 15 2d bb c0 5b b2 3e 62 67 78 3d
       0.030304728 -0.0026410338 0.34835625 0.06064547
000070 b6 93 ac 3d dc 5f d8 3d 80 35 8b 3e 64 c7 71 3e
       0.08426611 0.10565159 0.27189255 0.23611218
000080 b0 11 ee 3d 27 28 7b 3d 21 95 1f 3e 17 c5 6e 3c
       0.116244674 0.06131759 0.15584232 0.014573357
000090 70 57 cc 3d 1f 62 e7 3c 24 89 0c 3e 0a 6b 77 3d
       0.09977615 0.02824503 0.1372419 0.060404815
0000a0 c6 9b 28 3c db 78 47 3e be d3 30 3e 97 b6 25 3d
       0.0102910455 0.19479696 0.17268273 0.040457334
0000b0 86 e8 19 3e b8 dd 50 3e 31 63 1c 3e a8 1d 8d 3d
       0.15030107 0.20397079 0.15272214 0.06890422
0000c0 9a 3d 1b 3d ea 9b 08 3e ae 11 41 3e 91 0f 52 3e
       0.037900545 0.13340726 0.188544 0.2051375
0000d0 05 45 1c 3d a9 33 93 3e 9c fe 78 3d 83 f8 8c 3d
       0.03815176 0.2875035 0.06078969 0.06883337
0000e0 b4 22 9d 3b 39 b7 83 3d 18 de a2 bd 68 12 32 3e
       0.0047953967 0.06431431 -0.07952517 0.17389834
0000f0 42 a5 19 3e d5 b5 d5 3d 69 9f b0 3d 7d 66 34 3d
       0.15004447 0.10435072 0.08624155 0.044043053
000100 08 79 21 bd 0a b9 fb bd bf 4e 03 be f2 4e 18 3e
       -0.039422065 -0.12291153 -0.12823008 0.14873865
000110 0f 83 14 3d 69 ae 07 3e 7c 40 ad bd 4d 95 1f bc
       0.0362578 0.13250126 -0.08459565 -0.009740186
000120 56 55 aa 3d 21 46 cd 3c 46 67 bf 3b 13 94 a5 bd
       0.08317058 0.025057854 0.0058411686 -0.080848835
000130 ca 26 0c bb 8f ec 10 be 86 a5 65 3d b2 15 a2 bc
       -0.0021385425 -0.1415274 0.05606606 -0.019785736
000140 0c 28 89 3d bf bc 81 3d 58 6e a1 bd 4a d9 45 3e
       0.066970915 0.063348286 -0.078823745 0.1932117
000150 d8 e4 18 3a ff c7 ca bd dc 3a 76 bc fa 30 e8 3c
       0.000583244 -0.099014275 -0.015028682 0.028343666
000160 58 44 08 3a 60 c4 f0 bd e2 34 48 be cb e5 1d be
       0.00051981723 -0.117562056 -0.19551423 -0.1541969
000170 34 c1 27 bc 42 0d 16 3d 71 d7 93 bc bc 93 6a bd
       -0.010238934 0.036633737 -0.018047066 -0.057269797
000180 df b8 a5 b7 12 3c ed bd 95 9f ed 3b c8 e8 fe 3b
       -1.975562e-05 -0.11583723 0.0072516897 0.0077792145
000190 03 44 12 3c ce 08 c6 3d cc 1f 2b be 65 a8 25 bc
       0.008927348 0.09669648 -0.16711348 -0.010110949
0001a0 39 71 9f bd c5 0a bc bb 16 f0 f2 3d 97 1e 05 3e
       -0.077852674 -0.0057385885 0.11862199 0.1299995
0001b0 f4 de a5 3d c8 76 02 be 49 49 8d bd 4f 4f bc bd
       0.080991656 -0.12740624 -0.06898744 -0.091948144
0001c0 d7 2d ae bd f4 bb 94 bd 79 c1 18 3d ff 76 32 3c
       -0.08504837 -0.07262412 0.037293885 0.010892629
0001d0 96 6a 97 3d c5 ff e6 bd c3 f8 14 3d d5 c2 08 be
       0.073933765 -0.11279253 0.03637005 -0.13355573
0001e0 d8 7a 51 3e 06 97 44 be e1 dc 99 bd 50 88 26 3b
       0.20457017 -0.19198236 -0.075128324 0.0025410838
0001f0 41 f3 19 3e 76 3f d0 3d 21 63 af bc 94 5d 6e bd
       0.150342 0.10168354 -0.021409573 -0.05819471
000200 55 b7 ed 3d 28 65 52 bd 08 e5 85 3d 1f 3e e6 bd
       0.116072334 -0.051366 0.06537825 -0.112423174
000210 08 49 46 bd 06 db c3 bd 99 c7 ae 3d cb aa 51 bd
       -0.04840949 -0.0956326 0.08534164 -0.05118827
000220 7c 50 5a 3d 33 44 e5 3d 8a 2d 05 3d 79 b6 55 3d
       0.053299412 0.111946486 0.032514133 0.052175973
000230 63 53 08 3e 81 a4 9b 3d 7b 40 98 3d 1f 88 78 3d
       0.1331306 0.07599736 0.07434174 0.06067669
000240 9c 44 69 3d 11 54 b0 3d a4 a8 cd 3d 2f 7e e1 3c
       0.056950197 0.086097844 0.10041931 0.02752599
000250 51 bc 26 3d 1d c0 01 3d ca 5b 1b bc 2f 44 c1 3d
       0.040706936 0.031677354 -0.009482333 0.09436833
000260 aa 55 95 bd 26 76 1f bd fe 0f f7 3d 16 b9 b6 bd
       -0.0729173 -0.038931035 0.12063597 -0.08922021
000270 d6 32 c2 3d 41 1a 66 3c bb a6 99 bc 22 5f b4 3d
       0.094823524 0.014044345 -0.018756261 0.08807208
000280 00 cc d6 3d 2f 93 35 bd 56 a6 d9 3d a0 2e 99 bd
       0.10488129 -0.04432982 0.10627429 -0.07479596
000290 e7 32 df bd b1 a8 d2 bd 92 1d 6f 3d b2 31 c4 3c
       -0.10898381 -0.102860816 0.05837781 0.023949478
0002a0 05 23 b2 3d 77 6f fd 3d 9d ca 58 3d 2c 02 d0 bd
       0.08698086 0.12374776 0.052927602 -0.10156664
0002b0 1f db 8f 3d 6f 1d be bd a5 7a 23 3d b4 fc 8b 3d
       0.07024216 -0.09282958 0.039911885 0.06835309
0002c0 1b ec 47 bd cb 0e fe bc 81 f1 bd 3b 27 db 92 3d
       -0.048809152 -0.031012913 0.005796612 0.07170706
0002d0 eb b5 ca 3d 79 ea 97 bd bb 5c d7 3d e5 a9 20 3d
       0.09897979 -0.07417769 0.10515734 0.039224524
0002e0 6e 51 f2 bd 8d ba 9d 3d 4a 83 1c be 0d bf 7e 3d
       -0.11831938 0.07701597 -0.15284458 0.06219392
0002f0 ba 1d c8 3d 0d 76 f8 bd 14 8c e2 bd dc 84 28 bc
       0.09771295 -0.121318914 -0.11061874 -0.010285582
000300 99 f9 68 3d 0c 1a d0 3d 57 30 75 3d a4 62 da 3c
       0.05687866 0.10161218 0.059860554 0.026658364
000310 81 c7 1a 3e b7 ca 5e bd 7f f1 3d 3e ff 13 92 3e
       0.15115167 -0.054392543 0.18549155 0.2853088
000320 a4 4a 19 bc 1b 0c 91 3d b6 e4 1c 3e 8f ec f9 3d
       -0.009356175 0.07082387 0.15321621 0.12203323
000330 81 9c 5d 3c c1 d2 4e 3e 5f 6d 20 3e ab c4 ad 3d
       0.013526083 0.20197584 0.15666722 0.08484777
000340 0f d6 1f 3e 66 73 2b 3c fb b9 6a 3d af 99 85 3d
       0.15609 0.010464525 0.05730627 0.065234534
000350 15 7a 3a bc 45 09 d2 3d 45 fe 0c bd 35 c0 f5 bc
       -0.011381646 0.10255674 -0.034422178 -0.029998878
000360 99 70 93 3d 36 07 b4 bc 20 31 8d 3e 6a ab e1 3d
       0.07199211 -0.021976095 0.27576542 0.11019023
000370 dc a4 97 bd 8f f9 3a 3e 70 05 e9 ba a2 0d b4 3d
       -0.07404491 0.18259262 -0.001777811 0.08791663
000380 d6 ef 11 3d 3a ec e3 bc cb 0b 52 bb 3e 23 3b 3e
       0.035629116 -0.027822603 -0.0032050486 0.18275163
000390 29 0d f0 3c 48 fd 11 3e eb c6 91 3e 22 7f 18 3e
       0.02930315 0.14256775 0.28472075 0.14892247
0003a0 e1 a7 01 3e 48 47 69 3b 55 63 2d 3d 4d 4f 1e 3e
       0.12661697 0.0035595465 0.04233106 0.15459938
0003b0 9b 32 1c 3e 1c 2c f8 3d 54 98 2f 3e ed bb 06 be
       0.1525368 0.12117788 0.17147952 -0.13157625
0003c0 8e 1d 05 3e 0d 6d 35 3e 64 5c 27 3e 59 d4 a6 3c
       0.12999555 0.17717381 0.16343838 0.020364927
0003d0 6b b0 31 3c 2d d9 79 3e 49 a9 a2 bc 68 20 6b 3e
       0.010845284 0.24399252 -0.019856112 0.22961581
0003e0 a4 50 16 3d 41 99 53 3e e9 c1 3b 3d aa 08 35 3d
       0.036698 0.2066393 0.045839224 0.044197716
0003f0 3c e6 4f 3d 70 5f 68 3e ef 52 85 3c 7f 78 ed 3d
       0.050756678 0.22692657 0.016274897 0.115952484
